ML/modelo_recomendacao.tflite (tflite, 132652 bytes, 11 tensors)

arith.constant f4 [83, 32]
00000000: 851e 4c3e fc0d 43be 21bf 4bbc 01cc 1ebe
00000010: 8b87 c43d 1d97 c7bd c95f 813d b35d 37bd
00000020: 0c4b 94be fda0 19be 0e89 aa3d 5f0e 08bd
00000030: 6f93 963e 826d cebe 7498 293e c415 6b3e
00000040: d9fb 5bbe 95d6 c0be 761d a93d 387c 2ebd
00000050: 2519 6d3d 5a3a c9be ab81 743e d1c7 83be
00000060: 1184 febd 6c6e e6bd 90f5 14be d8bb 3c3d
00000070: 1ea6 03bf f712 ddbe 1b40 073b bd16 a03e
00000080: 161e 69be b94f 68be d183 86bd 8add 1fbf
00000090: 673a 8c3e 2ae9 953e 4829 af3e 00ed c6be
000000a0: 03ae fcbe d659 1dbd eb48 513e f7c5 0cbc
000000b0: 767f a53d 43e2 2fbd 38c0 9fbc 56d6 993d
000000c0: a2cf 42bf bd72 babd 2b75 23bf defa 133f
000000d0: 7b12 49bc 5118 f1be 4bfc db3d 3c10 92bd
000000e0: abcb 22be 053b b83e 8c92 82bd e79e 29bf
000000f0: eac5 82bd 564f 10be cdc1 c23d 57e1 c8bc
00000100: b5ef b73e 1829 c1bb 0a5d 05be 8486 e13b
00000110: 5ab8 ac3e 2ebb 14bf 6e23 863e 4379 9cbe
00000120: 7f30 a9bd 457a 263e ce72 6f3e 9952 9fbe
00000130: 915b 0fbc fc95 c3be 1779 9ebd 1979 1c3e
00000140: a739 c0be ae8f 10bf 7852 03bc 8704 8bbe
00000150: e37f ba3c 291c bcbd f29a 26bd f050 5e3d
00000160: 4eb4 9dbe b18f 9dbd f2e7 0a3e ab04 16be
00000170: a722 09bf da35 79be 67af aabc 068c dd3c
00000180: 3e77 edbc 18b8 b7bd feac 93be 0de7 12bf
00000190: f612 1e3d b0af ac3e 02c4 4cbe 26a6 a9be
000001a0: 6d58 b5be 58d9 043d 64e5 473e 9e91 163d
000001b0: 4e7e 1d3e 8bac 29be af1f db3d f611 ad3d
000001c0: a54c 1fbf 0172 81be 41ad e13d 6605 593d
000001d0: 0d6c 48be a2d8 abbe 3129 c43e d382 7fbe
000001e0: cdf6 a53d 9e25 c53e c172 c53d bbe5 2e3e
000001f0: 6b7b babe 8451 c4be 2497 233d 7352 c63c
00000200: 6fd2 963b 70f0 5e3e ba96 5d3e 6b26 9fbd
00000210: 801f 6f3e 29c0 e3bd 3368 7b3e 51f5 38be
00000220: b73f 37be b158 04bf cf28 953e 1947 c9be
00000230: 96b0 1c3e b2c0 9dbe ea11 4d3d 9c1e 85bd
00000240: d5d9 803c 3a47 b63c d93a ac3d c14f 1dbe
00000250: 92f3 d7bd 255a 8d3c dfa1 f4be 986f 2abe
00000260: 5233 8bbd 030c f1be 99ce 7f3c 5a11 7ebf
00000270: d9b8 2abe 5c4c c8bd d139 ebbd aece 9a3e
00000280: 7d35 38be 2542 bbbd e386 64be a08a 34be
00000290: e436 1e3d bbf6 533e cc75 24bd e068 c1bd
000002a0: 947e bdbd 025b 463e 27d7 1c3e 2a90 23bd
000002b0: 81a7 6f3e f913 783e 70cf c33c df97 a239
000002c0: 27e7 b2be 33c2 cfbe 0d93 20be 62ea 6f3e
000002d0: f5be fbbe 9913 c4be 3595 bc3d 1d93 29be
000002e0: 09a3 ef3d 87ad d53d 470a a53e 52ff 403b
000002f0: 4238 4e3c eb2e 243d 1b1c 333d 1c25 593e
00000300: 5664 243e 8881 4dbe 3f88 b4be 9a41 4abe
00000310: f324 983e 64bd b5be 9951 ba3e 9888 96be
00000320: 0de9 31be 428a 40be df34 923e ec80 f3be
00000330: 696f 5c3e 1cae a8be 804d 2d3e 977b 08be
00000340: c55a 73be c6a0 8abe 498b 683d 7698 a53e
00000350: b95c 5ebd b253 d2be c7f2 953d 511c 88be
00000360: 1eca 75be 74ab acbd a41f 883e 4535 bdbe
00000370: c984 bfbe d8e7 4dbe 96dc babd b35b ccbd
00000380: bc95 d5bc f038 9dbd 279b 3dbb f278 29be
00000390: 92b1 933e f835 89be 911f 87bd efef 0cbe
000003a0: b1dc 563e 1798 8dbe 65ac 4a3d 11b1 debc
000003b0: 1f58 eabb 10db 28be bb68 b53a 4ef7 16be
000003c0: 23b2 e2bc a099 c8be 44c6 3ebe acc4 e73e
000003d0: 9504 dbbc d709 67be 6687 253e 2bc3 eabe
000003e0: 7fc8 91be aeb4 783c 4f3c 0e3e d2b7 d63d
000003f0: 5ddf fe3a 489e babd fe85 2a3e 2c59 763e
0.19933517 -0.19048303 -0.012435705 -0.15507509 0.09596165 -0.097456194 0.06317098 -0.044767093
-0.28963506 -0.15002818 0.08326922 -0.03321683 0.29409358 -0.40317923 0.16562063 0.22957522
-0.21482791 -0.37663713 0.08257572 -0.042598933 0.057885308 -0.3930233 0.2387759 -0.25738385
-0.124275334 -0.1125153 -0.145468 0.04607758 -0.5142535 -0.43178532 0.0020637575 0.31267348
-0.22765383 -0.22686662 -0.06568111 -0.62447417 0.27388307 0.29279453 0.34211183 -0.38852692
-0.4935151 -0.038415752 0.20437972 -0.00859212 0.08080952 -0.04294039 -0.019500837 0.075115845
-0.7609807 -0.09103916 -0.6385066 0.5780467 -0.0122724725 -0.47088864 0.107414804 -0.07132003
-0.15898006 0.35982528 -0.06375608 -0.6625809 -0.06385405 -0.14092764 0.09509621 -0.024521513
0.3592507 -0.0058947913 -0.13023773 0.0068824906 0.337344 -0.58098114 0.26198906 -0.30561265
-0.08261203 0.1625758 0.23383638 -0.31117705 -0.0087498585 -0.38200366 -0.0773794 0.1528057
-0.37543985 -0.5646924 -0.008015268 -0.27151892 0.02276606 -0.091850586 -0.04067511 0.054276407
-0.30801624 -0.076934226 0.13565043 -0.14650218 -0.535685 -0.24336949 -0.020835591 0.027044307
-0.028987523 -0.0897066 -0.2884292 -0.57383806 0.0385923 0.3372779 -0.19996646 -0.33134574
-0.35419026 0.032433838 0.195211 0.036759965 0.15380213 -0.16569726 0.106994025 0.084506914
-0.62226325 -0.2528229 0.11019374 0.052983664 -0.19572468 -0.33563715 0.38312677 -0.24952249
0.08103714 0.38505262 0.09641028 0.17079823 -0.36422285 -0.3834344 0.03993906 0.024209237
0.0046027224 0.21771407 0.21639529 -0.077709995 0.2335186 -0.11120636 0.24551468 -0.18062331
-0.17895399 -0.5169783 0.29132697 -0.39312056 0.15301737 -0.30811077 0.050065912 -0.06499979
0.01572887 0.02225076 0.08409662 -0.15362455 -0.10544504 0.017254898 -0.47779748 -0.16644132
-0.06796898 -0.47079477 0.015613222 -0.99245226 -0.16672076 -0.097801894 -0.11485637 0.3023581
-0.17989154 -0.091434754 -0.2231708 -0.17631006 0.038626567 0.20699589 -0.040151402 -0.094438314
-0.092526585 0.19370654 0.15316449 -0.039932407 0.23403741 0.24226369 0.023902625 0.000310122
-0.3494198 -0.4057785 -0.15681095 0.23429254 -0.49169126 -0.38296202 0.092081465 -0.16560026
0.11701018 0.10433488 0.32234403 0.0029449058 0.012586655 0.040083807 0.043727975 0.21205562
0.160539 -0.20068944 -0.35260198 -0.19751588 0.2971569 -0.35496056 0.3639038 -0.29401088
-0.17374058 -0.18802741 0.28555962 -0.47559297 0.21526875 -0.32945335 0.16924095 -0.13328396
-0.23765095 -0.27075785 0.056773458 0.3234288 -0.054287646 -0.4107948 0.07321697 -0.26584104
-0.24002883 -0.084311396 0.2658664 -0.36954704 -0.37405995 -0.20107973 -0.09124105 -0.09978428
-0.026072375 -0.076768756 -0.002893159 -0.16550043 0.28846413 -0.26798987 -0.06597818 -0.13763402
0.20982625 -0.27655098 0.049480814 -0.027184041 -0.007151618 -0.16489816 0.0013840416 -0.14742777
-0.027672833 -0.39179707 -0.1863032 0.45267236 -0.026735583 -0.22562347 0.16164932 -0.45852026
-0.2847328 0.015179796 0.13890193 0.1048428 0.001944523 -0.09112221 0.16652676 0.24057454

arith.constant1 f4 [32, 64]
00000000: 333b f03e 4040 2ebe 338a 143e ece8 9f3e
00000010: ec51 5c3e 4807 7e3e 9554 cfbe 4065 4dbe
00000020: a6b9 70be 319e 7b3e ff2d 6abe e38e 18be
00000030: 28f4 8f3e abd8 bb3e c236 fc3d af18 243f
00000040: dea4 e53d 5f88 973d ab2b 16be f73a bdbe
00000050: 6b62 e9be e13c 1bbe b8c6 c23d 3efd 9c3e
00000060: e462 603e 7ff4 c2be 02cc de3d 6eed 283e
00000070: 9a1b 0d3c c7b7 57bd 6ee8 7cbb f700 a7be
00000080: 7e69 ca3e bfda 6d3e d373 d93e a3a4 b13e
00000090: 5206 963e b600 63bd fba5 843e 9b4e 81bc
000000a0: d299 953e 56d2 dd3e ae05 febc f065 4737
000000b0: d8d2 753e aa4b fd3e 06e9 56be 4ba2 e53e
000000c0: 5c00 1b3d 3d84 d23e da09 fcbd 8f74 a7be
000000d0: 3e09 99be a814 a43e dbec 863e e7ba cbbe
000000e0: 5358 aebd 5e6e 8f3b 1733 a6be d838 babd
000000f0: 4a9d 6d3e a080 abbe 063e 323d faea 52bc
00000100: 5aa3 93be 3641 b03e 4b32 273e 2d7c f1bd
00000110: 2aac 403e a76e c03e ba02 7c3e c060 673e
00000120: 952b c7bd c487 033d 4216 ba3e fea9 66be
00000130: e0dc 92bc 7d59 923d 8977 283d 8888 bd3b
00000140: de0f 613e 7df1 313c 3ad4 2a3e 36c9 47bc
00000150: b151 16bd f806 413c 9927 a0be f7b0 9cbe
00000160: db92 b93e 725f d63e fc0e 013f 1a5e 9a3e
00000170: aa23 73be 0604 e3bd afb1 8abd 0657 41bd
00000180: 3961 273e 6401 b5be 9e67 843d 6980 ad3e
00000190: edf3 8bbe 9b76 37be 6705 223e e254 da3e
000001a0: e2af 6abe b972 24bd e1a7 8f3e c915 2b3b
000001b0: c8c4 0dbe 398f e83e 5830 0bbe 036b 8f3e
000001c0: 2638 343e fef2 043e e758 90be 0164 0d3d
000001d0: 492e a2bb 2cab 15bd 263c 073d 2471 7a3e
000001e0: 59f7 153e e091 afbd fd9c 803d 15e8 dbbe
000001f0: 397e 703e 5772 9ebe 3b6d 893d ff38 5bbe
00000200: a40f 05bf 059a b93e ab3b 173c 4043 043e
00000210: d91a 373d e5fe 563e 9767 193e 2ba5 db3c
00000220: b17a 1a3c fce4 4ebe 13ad 0e3e ff3e b9bd
00000230: 0194 233f 37e0 86bd dc1f 3bbe 6136 bb3e
00000240: 8e54 983e 8cf0 6b3d ffbc 32bd c68e fdbd
00000250: 1979 613e 4805 24be b7aa 72be af42 52bd
00000260: fc5a 95be d944 123f 70ac ea3e 834f 0cbe
00000270: ba47 2a3e 6ce2 a2bd 7292 a53e f891 0a3c
00000280: 156c 243e 7254 f6bd 2da5 a9bd 55a8 fd3e
00000290: b7b0 243f 7f72 b4bd 4ee9 77be 1bb6 83bd
000002a0: 0f6d dd3d a971 5fbe c429 9fbc d9af b23d
000002b0: bd73 ae3e 9a03 c33e 73ec 9b3c 3c16 da3e
000002c0: 9f93 3d3d 369f 21be daab c4be 8f29 0cbd
000002d0: 0a34 893d b0b2 7d3e 25a1 3b3e d478 893e
000002e0: 7f74 dabd 64a3 f83c 476c 9b3d 10df a4ba
000002f0: 2b40 02bd 6338 85be c6b4 b73e c2ac 1cbe
00000300: 0307 863d e0b0 7b3e 0595 033e 007e c7be
00000310: 2a09 b63d dd9a 7f3e bfc5 323e bceb 5b3e
00000320: b162 2a3c b8f1 0bbd 1345 9cbc 60ec d03e
00000330: 68d4 f5bd 43ad 74be f6cf a53e 0c75 81be
00000340: e87a 903e 7579 bfbd ecab 76bd f42b a03e
00000350: da85 a9be 09dc 3cbe 526d 5cbd 232d 14be
00000360: fecf bb3e cfab 21be 466d 9abc f7a0 353e
00000370: 3879 903e 46e3 88bd 44e8 86be 056f 4b3e
00000380: d70e 783e 679a e7be 9a58 20be bd3d 853e
00000390: c65f 24be 65a1 0f3e bc2c 843e 3314 213e
000003a0: 0321 1abe 959e 7e3e b9b8 bc3d fd94 3fbe
000003b0: 385a b03d e108 713d 6676 2fbe 69aa 78bd
000003c0: dfd1 593e 58f0 04be aecd 8bbe 0014 31be
000003d0: d48c ee3e f05c 803e 93d0 323e ce68 c1bd
000003e0: ca59 2b3e a29d 29bd 6303 3fbd 936f 263e
000003f0: bf9f fdbd 6063 9cbe 5166 a03e 92c7 f23d
0.46920165 -0.17016697 0.14505844 0.31232393 0.21515626 0.24807465 -0.40494218 -0.20058155
-0.2350832 0.24572064 -0.22869109 -0.14898257 0.28115964 0.36688742 0.12315132 0.64100164
0.112130865 0.073990576 -0.14665096 -0.3695905 -0.455829 -0.15159942 0.09510559 0.30661958
0.21912724 -0.3807716 0.10878755 0.16496822 0.008612538 -0.052665498 -0.0038590687 -0.32617924
0.3953361 0.23227976 0.4247118 0.3469592 0.29301697 -0.0554206 0.25907883 -0.015784552
0.29218918 0.43324536 -0.031008568 1.18850585e-05 0.24006212 0.4947179 -0.20987329 0.44850382
0.03784214 0.41116515 -0.123065665 -0.32706115 -0.29889864 0.3204701 0.2635258 -0.39791033
-0.0851294 0.0043771705 -0.32460853 -0.09092873 0.23204532 -0.3349657 0.04351618 -0.012873406
-0.28835565 0.34424752 0.16327779 -0.11791263 0.18815675 0.3758442 0.24610415 0.22595501
-0.097251095 0.032111898 0.36345106 -0.22525784 -0.017927587 0.07145975 0.041129623 0.005784098
0.21978709 0.010860798 0.1668252 -0.0121939685 -0.036699 0.011781447 -0.3128021 -0.30603763
0.36244854 0.41869694 0.5041349 0.3014992 -0.23744074 -0.11084752 -0.06772172 -0.047202133
0.16345681 -0.35352623 0.06465076 0.33887032 -0.27334538 -0.17916338 0.15822373 0.42642885
-0.22918656 -0.04014847 0.2805777 0.0026105514 -0.13844597 0.4542177 -0.1359266 0.2801133
0.17599544 0.12983319 -0.28192827 0.0345192 -0.0049493653 -0.036540195 0.033016346 0.24457222
0.14645137 -0.08572745 0.06279943 -0.42950502 0.2348565 -0.3094661 0.06710287 -0.21408461
-0.5197699 0.3625032 0.009230535 0.12916279 0.04470334 0.20995672 0.14980923 0.026812157
0.009428666 -0.20204538 0.1393321 -0.09045219 0.6389771 -0.06585734 -0.18273872 0.36564925
0.2975201 0.05760245 -0.043637272 -0.123807475 0.22018851 -0.1601764 -0.23697935 -0.051333126
-0.29170978 0.57136303 0.45834684 -0.13702206 0.16628924 -0.07953343 0.3233829 0.008457653
0.16056855 -0.120278254 -0.08283458 0.4954249 0.64332145 -0.08810901 -0.24210092 -0.06431218
0.10811817 -0.21820702 -0.019429095 0.087249465 0.34072676 0.38088685 0.019033646 0.42595088
0.04628336 -0.1578339 -0.38412362 -0.03421932 0.06699379 0.24775195 0.1832319 0.26849997
-0.10666751 0.030351348 0.07589012 -0.0012578685 -0.031799477 -0.26019582 0.35880107 -0.15300277
0.06544306 0.24579191 0.12849815 -0.38963318 0.08888467 0.2496142 0.17458247 0.21476644
0.010399506 -0.034166068 -0.019075906 0.4080534 -0.12003404 -0.23894219 0.32385224 -0.25284612
0.2821877 -0.09349338 -0.06022255 0.31283534 -0.33109933 -0.18443312 -0.053815193 -0.14470343
0.36682123 -0.15788196 -0.018850934 0.17737184 0.28217483 -0.06683974 -0.2634908 0.1986657
0.24224411 -0.45234987 -0.15658799 0.26023665 -0.1605216 0.14026411 0.2581538 0.15730362
-0.15051655 0.24865182 0.092149206 -0.18709178 0.08610958 0.05884636 -0.17135009 -0.06070939
0.21271466 -0.12982309 -0.2730536 -0.17292786 0.46591818 0.25070906 0.17462377 -0.09443818
0.1673347 -0.041410096 -0.04663409 0.162535 -0.12383985 -0.30544567 0.3132806 0.11854471

arith.constant2 f4 [64, 47]
00000000: 1253 d5bd ce8b bbbd 94c7 01be c15b 0bbf
00000010: 7f6d 39bc c252 a9be 61e2 2a3c 1b35 d53e
00000020: ae34 8fbe 7629 01bd 6865 71be 709c 793e
00000030: 7d41 6bbe fdae 0d3c 999d 943d af6e 8bbe
00000040: e748 783e ef68 04bf 2bea e43e c362 cdbe
00000050: e201 8d3e f4aa ca3e 8298 b4be 31b6 b73d
00000060: a3fa 8c3e ab2c 68be b382 c0be 49e0 b9be
00000070: a807 aabd c1ff 01bd 8f5d 63be efa8 c6bd
00000080: b225 77bb d75b 713d 77a5 9d3d 4a12 143d
00000090: 752f 9cbe 662a 013e 8e2b 873c 4095 913d
000000a0: 46a9 adbe fc2e a2bc 8d1f 4f3e de96 9d3c
000000b0: 2ea4 0bbe 968f 6cbe 67b8 453d 6b15 5dbc
000000c0: b494 993e 61af d53d af44 fd3e 1b32 cebb
000000d0: 981d fa3e 091d e33d 71a3 8f3b a927 9f3e
000000e0: fb2e 86be 32d5 a23d 51db 05be 8e43 e93e
000000f0: 83cc 57be 683d 5bbd a6f2 c73e 977a 09bf
00000100: e10f 283e 6a34 5dbe 1bcd 043e 784b 0f3f
00000110: 7135 2abe 7ff1 1a3e 9651 95be 839d 9d3e
00000120: 7d63 b9be 2707 203e 0615 a93e e257 663e
00000130: 7c8f b23e 582c cdbe da8c e23c a20c 8c3e
00000140: c182 cdbd 6547 c8be 4022 223e 3f2d 19be
00000150: 66ab 3b3e c4d6 1abe 79d3 643e c068 8a3e
00000160: ea85 183c d738 21bd 7613 99be 7fce 9abe
00000170: c130 49be 3f63 a93c 6b24 353d 6f05 8abe
00000180: a874 863d 1a35 45be cb61 8bbe 8307 ebbe
00000190: 346c dc3d 8b0e abbe 30f8 ebbd bd81 7f3e
000001a0: e823 f83d 5a28 f2bd 19ff a23c 7cc6 57bd
000001b0: c314 e43e 2105 60be 1638 8d3e 2a89 613e
000001c0: ab31 753d caf3 8fbe 00f7 683e b392 623e
000001d0: 430a e03e b2ab ac3e 144d 93be 5745 89be
000001e0: 8954 19bd c5ef 8bbe efff 5d3d 747c acbe
000001f0: d83d e3be 510c bebe c185 533e 039f f8be
00000200: 47f9 febd 3da4 6b3d 9a66 9fbe 845d a63e
00000210: d139 8abe 03d1 db3e 3b80 28be ec82 02be
00000220: 5b15 efbd d270 fbbd 9875 30be 3946 c1be
00000230: 5cb3 d73e e12b 43be a937 cfbc e1bd 903e
00000240: 21c0 0fbe 8bb2 bc3d ba18 a4be 7ee8 aebe
00000250: ac0a 79bd 9fa7 773e b3c4 ccbe 8c68 333e
00000260: d4e6 0cbf 6bb3 bb3d 7fa8 8b3e ff5b 4cbe
00000270: 5f3d 97be 9617 9bbd 2757 bb3c 11bd ecba
00000280: 98bd a53d 5565 4dbc 1cdc 82bd 8d13 d1be
00000290: a795 07bf de93 80be d5fc 4fbc 14e6 d33d
000002a0: 92f8 8bbe f47d a53e f72f 8f3e b0f3 8d3d
000002b0: dac2 e33d 21b8 ad3d a200 b3be ae12 1bbe
000002c0: d628 b2bc a290 27be 800f 3bbc b1f3 8dbe
000002d0: b587 203e c4d0 473e 576b a13d ca02 773e
000002e0: 6f16 99be 6724 b4bd 4e71 01bd f56e 4f3e
000002f0: 6459 123f ee2c 8b3e 3448 aa3e 24fa 8f3e
00000300: 14c0 563d bc15 40be 39f6 a1be 8b6b ab3d
00000310: 25c8 08bf 07a6 473e 4862 3bbe cbaf 943e
00000320: 8d11 503c bff2 f83e 3f8f b33d 16c6 483e
00000330: 4513 283e c05e f2be a47b 0bbe f341 18bf
00000340: f216 d13e de97 9e3e 7e69 ad3d 84bb 6e3d
00000350: 8e62 8fbd e6de 653e ab48 c4be f2d1 9dbd
00000360: c08a 7dbe bfb9 6ebe f5b4 873e e2ae 12be
00000370: 6a1b a6bd 80d9 d9bb 4d42 66be dc4e e23d
00000380: 824f 6d3c 5507 4b3d 84e6 78be ffee 9f3e
00000390: c0db e5bb 2c62 80be 1c78 28bd d137 5abe
000003a0: 4738 40be caf0 26be 9f3c 943e 351c 81be
000003b0: 0fb4 44bc 5585 963e 5b39 c73e 22bc 55be
000003c0: b628 3abd 58ec cb3d 9e65 0fbe 920e 393d
000003d0: b838 abbe 79e0 003d 5d3d c3be 8dc2 16be
000003e0: a3c0 943e e4b2 9d3e 3d9d 44be 7640 9e3d
000003f0: f12b 5fbe df79 b93d e492 0d3f eecb 023e
-0.10416235 -0.09157525 -0.1267379 -0.5443688 -0.01131761 -0.33070952 0.0104299495 0.4164208
-0.2796988 -0.03153368 -0.2357384 0.24376082 -0.229742 0.0086476775 0.07256622 -0.27232882
0.2424656 -0.51722616 0.44709906 -0.40114412 0.275405 0.39583552 -0.35272604 0.08970297
0.2753497 -0.2267329 -0.37599716 -0.36303928 -0.083022416 -0.031738047 -0.22203659 -0.0970019
-0.0037711677 0.058925476 0.076975755 0.036150254 -0.30504957 0.1261383 0.01650026 0.07108545
-0.33918208 -0.019797795 0.2022688 0.019236978 -0.13636848 -0.23101649 0.048271563 -0.013493876
0.29996264 0.104338415 0.49466464 -0.006292594 0.48850703 0.110895224 0.0043834974 0.31084946
-0.26207718 0.0795082 -0.13071944 0.45559353 -0.21074109 -0.05352536 0.39052314 -0.5370268
0.16412307 -0.21602026 0.12968867 0.5597453 -0.16621949 0.15131186 -0.29163808 0.30784234
-0.36208716 0.15627728 0.33023852 0.22494462 0.34875095 -0.40072894 0.027655054 0.27353388
-0.10034705 -0.3911697 0.15833378 -0.14958666 0.18327102 -0.15120989 0.22346295 0.27033043
0.009309271 -0.039360847 -0.2989766 -0.3023567 -0.19647504 0.020677207 0.044224184 -0.2695727
0.06565219 -0.19258538 -0.27223048 -0.45904168 0.107628256 -0.33409533 -0.115219474 0.24951835
0.121162236 -0.11824103 0.01989703 -0.052679524 0.4454709 -0.21876957 0.27581853 0.2202498
0.05986182 -0.28115684 0.22750473 0.22126274 0.4375783 0.33724743 -0.28769743 -0.26810715
-0.037434135 -0.27331367 0.054199155 -0.336887 -0.4438312 -0.37118772 0.20656492 -0.48558816
-0.1244989 0.057529677 -0.31132966 0.32493222 -0.26997235 0.429329 -0.16455166 -0.12745255
-0.11673995 -0.12277378 -0.17232358 -0.37748888 0.42129028 -0.19059707 -0.025295096 0.28269866
-0.14038135 0.09213742 -0.32050115 -0.34161752 -0.060801193 0.24185036 -0.3999382 0.1752035
-0.55039716 0.09165081 0.2727699 -0.19956969 -0.2953901 -0.07572858 0.022868706 -0.0018061717
0.08092803 -0.0125363665 -0.06389639 -0.4083523 -0.52962726 -0.25112814 -0.012694557 0.10346618
-0.27338082 0.32322657 0.27966282 0.06931245 0.11121149 0.084823854 -0.3496142 -0.15143844
-0.021747988 -0.16363767 -0.01141727 -0.27724984 0.15676768 0.19513232 0.078818016 0.24122158
-0.29899928 -0.08796006 -0.031602196 0.2025717 0.5716765 0.27182716 0.33258212 0.2812053
0.052429274 -0.18758291 -0.31633165 0.083701216 -0.53430396 0.19496928 -0.1829921 0.2904037
0.012699497 0.486227 0.087675564 0.19606814 0.164136 -0.47337914 -0.13621384 -0.5947563
0.40837818 0.3097524 0.08467387 0.058284298 -0.0700122 0.2244831 -0.3833669 -0.077060595
-0.2475996 -0.23313044 0.26505247 -0.14324525 -0.081106976 -0.0066482425 -0.22486229 0.110501975
0.014484288 0.04956754 -0.24306685 0.31237027 -0.0070147216 -0.250749 -0.04113017 -0.21310355
-0.18771468 -0.16302791 0.289525 -0.25216833 -0.01200582 0.293986 0.38910946 -0.20872548
-0.04544898 0.09957188 -0.14003608 0.04517991 -0.3344171 0.031464074 -0.38132754 -0.14722653
0.2905322 0.30800545 -0.19200607 0.07727139 -0.21794106 0.09056448 0.5530226 0.12773106

arith.constant3 f4 [689, 32]
00000000: d78a 05bf 93b2 8bbb 6503 33be aaa4 d2be
00000010: d463 59bd cd55 e9bd 0a1c 863e 43c3 583e
00000020: d5bb 14be d83d f2bd c464 813e 8cab bc3e
00000030: e541 1ebe fe8d 303d 00ee ccbd ef21 1dbe
00000040: b357 523d 8634 a0be 7edd 963e 3c43 733d
00000050: 9e4e 383d 2be4 1c3e 088d d9be a6d3 8f3c
00000060: d73c d63b 8b77 003f 7213 833e 249e 0abe
00000070: a67f 71be 7032 e4bc 971e 31bd b132 ae3e
00000080: 8f6d 8f3e 8cc7 a73e ca9e d23d ec05 913e
00000090: d15c da3d 86dc 863d cff0 e4bc 9242 f3be
000000a0: 49d3 8c3d b10d 733c 7458 a3bd 7c12 e13e
000000b0: 658f 9ebe 32de 903d f653 ffbd 575b d1bc
000000c0: 8e29 51bd c281 84be 5224 d33b a07f 58bd
000000d0: f11c 0abe e88b 823e 6c2f 05bd dcdf 89be
000000e0: 251d c6bc 4cd5 ae3d d842 b0be c3ec 293e
000000f0: 3913 05bf 5a00 c3bd 039f 843e 32d4 dc3d
00000100: 0851 19be 718f 9b3b f9a2 1dbc 2897 613c
00000110: c334 62be 0f78 16bd 5ed8 623e 038c 82bd
00000120: 6393 023e c30c 80be 2c15 4dbe 99ff fdbd
00000130: d9e7 14bc f53c 25be 9b6a c13d 5f70 0c3d
00000140: b3b4 6dbd 78a3 a43e efd0 5cbd fa8e 9a3e
00000150: dd90 f23d 1d72 e83d 2be5 693e 4cd2 c0bc
00000160: 2f60 e93d 4ad1 d93e 97c5 6e3d f6d0 6ebe
00000170: 2b0a c03d caff a13e bdc5 08bc e610 eabd
00000180: 5f8b 973e 2ab4 4cbe 7488 41be 2c2a 38be
00000190: 5fdf 81be 458f 50be 95ca 59be f516 653e
000001a0: a425 883e f32d 963e 0da1 693e 16f9 5b3e
000001b0: a7c6 bbbb 0a47 bfbd e7fd 7b3e 4cb7 59be
000001c0: 9bca 6f3e 8706 ad3d d502 65bd 5272 99be
000001d0: 3e56 1cbe f04a 4e3e 379a 813e 6e59 483e
000001e0: dec0 0cbe e595 70be c19a 01be 9090 8abd
000001f0: 2ba5 1fbe 92a1 8dbe 2afe 45be c47e 41be
00000200: 9ca9 61be 1671 4c3e 64b3 abbe f87a 1cbe
00000210: 1f4a 85be e2f9 053e d48d 8c3e 35f7 dc3e
00000220: 5d16 c5bd 0705 97be 4280 65be a022 263e
00000230: 1106 3b3c e057 45be 1659 0ebe 7116 96bd
00000240: 4de4 463e 6fa6 8ebc 91b7 44be 2ab6 6abe
00000250: 33fc 0abd c4f5 9f3e 1e3b d9bd efc4 19be
00000260: db32 793e e18b 9ebe acd6 e4bd 58e1 413e
00000270: 8f8f e9bd 7e7c 983c b48a c9be 5a14 d4be
00000280: 1bfb 83be 9930 383e c229 89be e447 c4be
00000290: da8e 72be 5788 213d bbf5 313e 8830 963e
000002a0: 9733 20bd 47fb 81be 3e77 08be 73d5 683e
000002b0: 62fd 49bd 154f 02be a70c 56be cf46 34bd
000002c0: b07a bc3d a310 31bc b871 89be 3c4c bfbc
000002d0: ca0c 59be 641c b33e 6f1c 0f3d 4c94 41bd
000002e0: 8877 163e 752a 5abe 1435 2abe c9fa 06bc
000002f0: ab25 89bd e50a cc3c bea8 9dbe fa43 84be
00000300: 6e21 5abe e1ef 7dbe c6a2 68bc 5706 78be
00000310: d908 53bd 7755 223e a65b 56bd d537 5d3e
00000320: 1b0f 05be e0e7 213e 83ca 0e3e 9ca1 28be
00000330: b904 133e 3789 5d3e ba78 22bb 17ca 9abe
00000340: fb7e 893c 67fe 513e af8a 873e 0038 43be
00000350: 1965 833e d533 11be b4f4 183e 1210 9d3e
00000360: 89f1 71be f539 273e bd0d 1b3e 2c6b aabd
00000370: 1d13 7e3e a5f4 583e 4b0c 6abe b19f 973e
00000380: c66e 333c 778f 5fbe f6de 9abe d72e e0bd
00000390: 5bba 963d 7b8a 4ebe 7b46 ebbd ca93 183d
000003a0: 873e 213b 0fb8 633d 7fc5 8ebd efd4 5dbe
000003b0: 96df a53d d7ca d2b9 5ad0 a83e 6645 d33e
000003c0: 7968 1a3e 61de 0fbe 285d e73e 1eda 943d
000003d0: 0fa9 ad3d f411 e6bb 4d4d 97bc 78fd a73e
000003e0: 6ed3 58bc e6c3 143d 531e d93c cccb 87be
000003f0: 643f b73d 977c 3a3d e41a 153e e704 b63e
-0.5216498 -0.004263231 -0.17481764 -0.41141254 -0.05307372 -0.11393318 0.26193267 0.21168236
-0.14524777 -0.11828202 0.2527219 0.3684963 -0.15454824 0.043104164 -0.100063324 -0.15344976
0.051353168 -0.31290072 0.2946586 0.05939029 0.04499685 0.15321414 -0.4249041 0.017556977
0.0065380144 0.5018241 0.25600773 -0.13536888 -0.2358385 -0.027856082 -0.043242063 0.3402305
0.28013274 0.3276943 0.10284193 0.2832483 0.106622346 0.0658503 -0.027946858 -0.47511727
0.06876237 0.014834807 -0.079758555 0.43959415 -0.30968776 0.070736304 -0.12467186 -0.02555625
-0.05106502 -0.25880247 0.0064435387 -0.052856088 -0.13487603 0.25497365 -0.03251593 -0.26928604
-0.02418382 0.08536777 -0.34425998 0.16594224 -0.51982456 -0.095215514 0.25902566 0.107826605
-0.14972317 0.004747324 -0.009621375 0.013768949 -0.2209044 -0.03673559 0.2215285 -0.06374361
0.12751536 -0.25009736 -0.20027608 -0.12402267 -0.00908848 -0.16136535 0.094441615 0.034286853
-0.058033656 0.32155967 -0.053910192 0.30187207 0.11844037 0.113498904 0.22841327 -0.023537777
0.11395299 0.42542487 0.058293905 -0.233219 0.093769394 0.31640464 -0.008347926 -0.11429004
0.2959852 -0.19990602 -0.18899709 -0.17984837 -0.2536573 -0.20367153 -0.21268685 0.22372039
0.26591218 0.2933193 0.22815342 0.21481737 -0.0057304683 -0.093397215 0.24608575 -0.21261328
0.23417132 0.084485106 -0.055910904 -0.29970032 -0.15267274 0.20145774 0.2531297 0.19565365
-0.13745448 -0.2349468 -0.1265669 -0.06765854 -0.1559035 -0.2766233 -0.19335237 -0.18896013
-0.22037357 0.19965014 -0.33535302 -0.15281284 -0.26033112 0.13083604 0.27451956 0.43157354
-0.09623406 -0.29496023 -0.22412208 0.16224146 0.011415021 -0.19271803 -0.13901171 -0.07328499
0.19423027 -0.017413346 -0.1921065 -0.22921053 -0.033931922 0.31242192 -0.10606979 -0.1501653
0.24335806 -0.30966094 -0.11173758 0.18933618 -0.11404335 0.01861405 -0.39363635 -0.41421777
-0.25777516 0.17987289 -0.2678967 -0.38336098 -0.23687306 0.039436664 0.17378895 0.293339
-0.0391117 -0.25387022 -0.13326737 0.22737674 -0.04931391 -0.1272548 -0.20903264 -0.04401284
0.09203088 -0.010807189 -0.26844573 -0.023351781 -0.21196285 0.34982598 0.034939226 -0.047260568
0.14694035 -0.21305259 -0.1662181 -0.008238503 -0.06696638 0.024907539 -0.30792803 -0.25833112
-0.21301815 -0.24798538 -0.014198964 -0.24221168 -0.05152211 0.15852915 -0.052333497 0.2160333
-0.12994044 0.1581111 0.1394444 -0.16467899 0.1435727 0.21634375 -0.0024791197 -0.30232307
0.016784182 0.20507203 0.26472995 -0.19064331 0.2566307 -0.14179929 0.14937097 0.30676323
-0.23627295 0.16330703 0.1514196 -0.08321223 0.24811979 0.21187074 -0.22856252 0.29614022
0.010951703 -0.21832071 -0.3024823 -0.10946434 0.07359763 -0.20170014 -0.114880525 0.037250318
0.002460392 0.055595454 -0.06971263 -0.21663259 0.08099286 -0.0004020545 0.3297146 0.41263884
0.15078916 -0.14049675 0.4518826 0.07268165 0.08479511 -0.007021183 -0.018469477 0.3281057
-0.0132340025 0.036319636 0.026503718 -0.26522672 0.08947638 0.045528974 0.14561039 0.35550615

arith.constant4 f4 [5, 3]
00000000: fe02 b8be 7972 c1be 2fb1 f63e 7315 91be
00000010: 97d2 c2be ba38 ca3e 44ea 25be ee8f 833b
00000020: 9cea 173e a97a 7dbe 746a 1dbe cade ad3e
00000030: 00b1 a3bc dd6f 1fbd 68b0 343c
-0.35939783 -0.37782648 0.48182055 -0.28336677 -0.38051292 0.39496404 -0.16202646 0.0040149605
0.1483559 -0.24753822 -0.1537264 0.33959037 -0.019981861 -0.03892504 0.011028387

arith.constant5 f4 [221, 4]
00000000: 1786 333d f51b 9e3d 60d8 4a3e acf9 5abd
00000010: d68a 7abe 43a8 ea3b 766c 8a3d fa81 c7be
00000020: 67ea 0d3c f009 9f3e 17a1 c33d 5ebf 3f3c
00000030: 459e b4bd 3d3c 78be 07be 073e af5c 8cbe
00000040: edd5 c6bd 5598 563e eb24 35be 8a7d febc
00000050: 7999 1abe e051 49be a298 2dbe c09c 29be
00000060: 1c9a ea3c 2d71 553e 43f5 073e f554 54bd
00000070: e420 4e3e cc00 0e3e 0d2b 03be fddc 083e
00000080: 70fa cc3c bc34 343d c741 71bd 7104 613e
00000090: 31ad c93d e311 893e b08a e33d 1171 203e
000000a0: 8f24 7fbe c31e 963d f0c0 233e 7d02 423d
000000b0: f17f 7c3c 8e3b eebd 0e3e 3cbd 80bd f0bd
000000c0: cf88 443d a5cd f4be cd2d 55bb 5340 6ebe
000000d0: 1e9b c43c e8f7 81be 4fd3 07be 1735 88be
000000e0: 3910 223e df28 e43d 0a7e 4f3e 556e 4dbe
000000f0: aaf2 2ebc 9223 683e 976f 39bc 71f6 2f3d
00000100: 6b62 343d 37c3 8cbe 23ac 2e3d 09ed 9cbe
00000110: af83 0fbd 02cf 1f3e 4322 953d 874d d03c
00000120: 7f97 50bb fd2d 693d 259e 933e deb9 89be
00000130: 0d62 55be d844 c1bd 6945 92be e6d9 c9bd
00000140: 0ac5 863e df74 fbbe cfec 83be dc60 0fbf
00000150: b435 35bd fd02 3c3d 5b47 35bd 8a1c 153e
00000160: 4225 803e 2637 09be fab1 d4bd 303e ccbd
00000170: 55af b23d 75b2 7a3d 2bd2 733e a8b7 76be
00000180: 7886 153e d49b 023d 6898 b53c 227a 883c
00000190: 4e6f 2d3c f69a ed3d 46d4 c83d 23cc a7bc
000001a0: 98c6 cebc 014b 303d 9ae4 3fbd 4b68 d4be
000001b0: 30f2 f9bd 6222 6f3e f86d 7d3e 4105 ab3e
000001c0: a52e 8dbe 8ccd 47be 6f67 353e ef3b 57be
000001d0: 10f2 293e 94a0 103e a312 583e 2f9f 8f3c
000001e0: 16af 363e 4ec9 0ebe 3610 643e ee27 3bbe
000001f0: 0a68 bdbe dab4 cebe 91c6 9bbd 252b e8be
00000200: 7501 79be 6199 4a3e 135b 5c3e fa6e 56bd
00000210: 31b1 77be e42c b2be 9205 873e bece 82be
00000220: 3e8e 8bbe 7b5d 17be 62a6 b53e 9a2d cdbd
00000230: e598 81bd 36fe 133d fba3 ae3d afef aabd
00000240: 2099 4f3d 4bdc 593e ce7c 133e 9407 21bc
00000250: b519 d3bc 4e66 62be 3f0a 46be 47ea 7cbe
00000260: 0551 5ebe 20e0 a5bd 0398 bb3e eba9 2bbe
00000270: 4e65 bc3c 1e79 473e b0f7 163e 0a9d a8bd
00000280: 5a8f fabd c003 1e3d c0bc 13be 4599 003e
00000290: eee1 df3c 8f8d 493e bdd8 2c3e cb31 39bd
000002a0: 8768 05be eda1 fcbd d2d7 2c3e ee50 1ebe
000002b0: fbc9 d4bd a77d 55be add3 003e b829 44be
000002c0: da80 6bbe aee9 3cbe 965c 62be d43d 94be
000002d0: 7a43 273e ad68 843d a88b 8d3e b10e 10bc
000002e0: 42b3 cabd 9338 7839 9d64 52bd 3389 543c
000002f0: 700c 89be ccd7 c3be dd3b 6bbe 67e4 a9be
00000300: 7e72 76bd d0c8 94bd c7e7 6bbe 11e2 01bd
00000310: 0c35 08be 8153 12be f18d 463e f0f4 0bbe
00000320: c017 bb3d e08e 7b3e b71d 13bd d4ed 8f3e
00000330: d7a7 efbd fec2 b23c 549b 933e 1c53 0fbe
00000340: f23a 21be 53a5 e6bd e14d 8bbe b827 8fbe
00000350: 24b1 1dbe 4171 23be 445f 87bd d11c 4fbe
00000360: aada 4a3e 2098 e53d f706 873e 026f 91be
00000370: 0c2d 11be d3f0 0b3c f05b 81be d4d7 06be
00000380: cbe1 b0bd 22fb 3cbe f34f 5cbe 6176 9d3c
00000390: d0f9 d13d 9e78 073e d55f 443e eb21 82be
000003a0: 7205 bd3d 3e62 e73d 3228 213e 8adb 03bd
000003b0: a051 a93c 3c7b 383e 0e0e ea3d d25f 55bd
000003c0: 6c94 54be c4f6 2a3e 5f3a d7bb 6c9a 833d
000003d0: 14e8 0ebe 76d0 36be 6928 4b3e dff9 debd
000003e0: 8a41 5dbb 7343 87be 26ec 31be a361 8cbe
000003f0: e23d db3d b16a 11bc ed66 c43b 4900 9cbe
0.04382905 0.07720176 0.19809103 -0.053460762 -0.24467024 0.0071611716 0.067589685 -0.38966352
0.008661843 0.3106227 0.0955221 0.01170334 -0.0881925 -0.24241729 0.13256083 -0.27414462
-0.09708772 0.20956548 -0.17689864 -0.031065721 -0.15097608 -0.19660139 -0.16952756 -0.16563702
0.028637938 0.20843954 0.13277154 -0.051838834 0.20129734 0.13867491 -0.12809391 0.1336555
0.025021762 0.043995604 -0.05890062 0.2197435 0.09847487 0.2677146 0.11110437 0.15668131
-0.2491629 0.07330086 0.15991569 0.047365654 0.015411363 -0.11632453 -0.045957617 -0.11754894
0.047982033 -0.47813144 -0.003252852 -0.23266725 0.023999747 -0.2538445 -0.13264202 -0.26603004
0.15826501 0.11140608 0.20262924 -0.2006162 -0.010677973 0.22669819 -0.011318109 0.042959634
0.04403917 -0.27492687 0.04264463 -0.30649593 -0.035037693 0.15606311 0.072819255 0.025427593
-0.003182858 0.056928623 0.28831592 -0.26899618 -0.20838185 -0.09436959 -0.2856858 -0.09856014
0.26322204 -0.49112603 -0.25766608 -0.5600717 -0.04424067 0.045901287 -0.044257503 0.14561668
0.25028425 -0.13399944 -0.10385509 -0.09972799 0.08724848 0.061205346 0.23810641 -0.24093497
0.14602077 0.03188689 0.0221674 0.0166598 0.010585619 0.11601822 0.09806113 -0.020483082
-0.025241181 0.04304028 -0.04684887 -0.4148582 -0.12204397 0.2335296 0.24748981 0.33402446
-0.2757465 -0.19512004 0.17715238 -0.21018957 0.16596246 0.14123756 0.2110086 0.01753196
0.17840227 -0.13943979 0.22271809 -0.1827695 -0.36993438 -0.40372354 -0.07606233 -0.45345417
-0.24316962 0.19785072 0.21519117 -0.05235193 -0.24188687 -0.34799874 0.26371437 -0.25548357
-0.2725696 -0.14781754 0.35478503 -0.100184634 -0.063279904 0.036131106 0.085273705 -0.08346497
0.05068314 0.21275441 0.14403078 -0.009828467 -0.025769094 -0.22109339 -0.19339846 -0.24698745
-0.21710594 -0.08099389 0.36639413 -0.16764037 0.022997525 0.19479796 0.14742923 -0.08233078
-0.122343734 0.038577795 -0.14427471 0.12558468 0.027329411 0.19682907 0.16879554 -0.045213502
-0.13028155 -0.123355724 0.16879204 -0.1546056 -0.10390087 -0.20848714 0.12580748 -0.1915654
-0.22998372 -0.18448517 -0.22105631 -0.2895342 0.16334334 0.06465278 0.27645612 -0.008792565
-0.09897472 0.00023672199 -0.051365484 0.012972164 -0.26767302 -0.38250577 -0.22972055 -0.3318207
-0.060167782 -0.072648644 -0.23037635 -0.031709734 -0.13301486 -0.14289667 0.19390084 -0.13667655
0.09135389 0.24566221 -0.03591701 0.28111136 -0.11701935 0.021821495 0.28829443 -0.13996547
-0.15745142 -0.11262002 -0.27207854 -0.2795999 -0.15399605 -0.15961172 -0.06609967 -0.20225836
0.19809976 0.11210656 0.263725 -0.28405005 -0.1417734 0.008541304 -0.25265455 -0.1316827
-0.086368166 -0.18455175 -0.21514873 0.019221487 0.10252726 0.13229606 0.19177182 -0.25416502
0.09229554 0.11298035 0.1573799 -0.03219179 0.020668805 0.1801576 0.11428462 -0.052093334
-0.20759743 0.16695696 -0.0065682377 0.06425938 -0.13955718 -0.17852959 0.19839634 -0.10887503
-0.0033760988 -0.26418647 -0.1737524 -0.2741824 0.107051626 -0.008875535 0.005993715 -0.30468968

arith.constant6 f4 [8, 4]
00000000: fc87 59be 6664 a73e bfb7 90be 32e4 803e
00000010: 87c9 73be 8e9a 893e af5e acbe 597c c43e
00000020: 6a3e 8cbe 5e6e 3c3e bf70 c6be 5350 bf3e
00000030: f061 afbe 28a7 873e c686 a6be f77b 983e
00000040: 0635 61be 435f 9a3e 4173 c53c c841 063d
00000050: e7b7 b1be f3a4 643e 1f8a 31be 9f64 213d
00000060: 46a7 65be 256a 043e da51 0cbe c642 693e
00000070: 4709 023d 603f aebc c09d 39bc f733 1f3d
-0.2124328 0.32693785 -0.28265187 0.251741 -0.23807345 0.26875728 -0.33665988 0.3837612
-0.27391368 0.18401477 -0.38757893 0.3736597 -0.34254408 0.26494718 -0.325247 0.29782078
-0.21992883 0.30150804 0.024102809 0.032777578 -0.3471062 0.22328548 -0.17337845 0.0394026
-0.22427091 0.12931116 -0.13703099 0.22779378 0.03174713 -0.021270454 -0.011329114 0.038867917

arith.constant7 f4 [25, 4]
00000000: 6a6d 743d 2581 e33c 979f c5bd d3db 1a3e
00000010: 8c5a edbc 942e 6abe 1688 b9bd 55ed 253d
00000020: 63a9 3abe 2bcc 57be 75f3 5bbe d64d 4e3e
00000030: 0fca 823e 2740 703d 66c7 a23e 00ad 77be
00000040: 43e8 5a3e fe33 863e edda 8b3d 55b1 2bbd
00000050: 9dbe 0c3e 0082 273e e70d b4bd 3695 04bb
00000060: 0124 a93d eb2c 1d3e 6ee9 b23c 52cb 083d
00000070: 0c9b 1dbe 9371 40be 071c 48be 5d2e 613e
00000080: 090c 2e3d 6788 00be 3157 27bd 2280 fc3d
00000090: f876 d43d 6304 02be 3bd6 8c3d bc54 37bd
000000a0: 54e0 423e 4d13 86bc 2741 bbbd 6b39 2d3d
000000b0: c9bc 003e a9b6 b8bd e81a 64be cce1 013e
000000c0: 11d8 073d 18c1 a1be 2b53 c0bd 91ad 243e
000000d0: f296 453e d24d efbd 653b 39be 4870 5c3e
000000e0: f422 693e d909 263d 8012 f7bd d5c2 5d3e
000000f0: 2a7c c63d 3471 353c a7a8 7ebe 56a0 173e
00000100: 62a9 e338 debe 64be 760a bcbd 7580 063e
00000110: 3a95 0dbd 0071 1cbe a89a 1cbe 549b c73d
00000120: 6083 39bc 762c 57be 38a1 31be 600a de3d
00000130: 9ca2 4a3e 9e6d 75be 0d20 65be 74dd 223e
00000140: cb57 023c 1baf 52be 7532 13be 449e ba3d
00000150: b78d 1c3e 394c 21be 51fc 87bc 87a8 83bd
00000160: 81df d93d 39f8 c4bd 7fba ebbd 0b05 d93c
00000170: 3727 6fbd f6a3 b7bc 777d d0bd dba7 163e
00000180: e2bf c73c 9ad2 c03c c334 1e3d c000 9a3a
0.059674658 0.027771542 -0.0964958 0.15122919 -0.02897384 -0.2286933 -0.090591595 0.04050954
-0.18228678 -0.21073978 -0.2147959 0.2014688 0.25544783 0.05865493 0.31792754 -0.24187088
0.21377663 0.26211542 0.06828866 -0.041917164 0.13744588 0.16358185 -0.08791714 -0.0020230538
0.0825882 0.15349166 0.021839824 0.033397026 -0.15391177 -0.18793325 -0.19541942 0.21990342
0.042491946 -0.12552033 -0.040854637 0.12329127 0.10374254 -0.12696986 0.06876799 -0.044758543
0.19030887 -0.016366625 -0.09143286 0.042291086 0.12572016 -0.09019215 -0.22275889 0.12683791
0.03316504 -0.3159263 -0.09390863 0.16081835 0.19295862 -0.11684765 -0.18089063 0.21527207
0.2276724 0.040536735 -0.120640755 0.21656354 0.09691651 0.011074353 -0.24869023 0.14807257
0.000108557535 -0.22338435 -0.09181683 0.1313494 -0.03456614 -0.15277481 -0.15293372 0.09746423
-0.011322826 -0.21013054 -0.17346656 0.108418226 0.19788593 -0.23967597 -0.22375508 0.1590479
0.007955502 -0.2057461 -0.14374717 0.09112218 0.15288435 -0.15751733 -0.016599806 -0.064286284
0.10638333 -0.09617657 -0.11510181 0.026491662 -0.058387008 -0.02241705 -0.101801805 0.1471247
0.024383489 0.023537923 0.038624536 0.0011749491

arith.constant8 f4 [83]
00000000: b445 6abd b4b4 36bc eba8 b4bc 12ca 5abd
00000010: 82a1 81bc b402 eabb 53ae 34bd c4bf 5bbd
00000020: 4035 d2bb aa3e 41bd e617 14bd 0fa7 90bd
00000030: e5a4 5f3d 696f a63d b37d fcbc 374d 9ebd
00000040: d0c4 88bd 3930 62bd 4f35 31bd e79d 8b3d
00000050: 6d84 a1bd 1167 9ebd c302 46bd bf5c cbbd
00000060: 3816 98ba 6193 19bd 546a b73c 9ad3 703d
00000070: 254f 633d 46bd e23a 7eaa d8bc 5ad3 0cbd
00000080: bd15 00bd 1ed6 04bd 8681 7ebd e294 5cbc
00000090: 85ea 76bd 4715 88bd 4e1c 6abd 41f3 c8bb
000000a0: e98f 3cbd e733 32bd ab81 a6bd e6a6 493c
000000b0: b481 96bd 6b89 7fbd 3139 bfbd 3f64 f03c
000000c0: 268b 103d 370b 193d 525a 5fbc 9368 24bc
000000d0: 6879 063c 8231 19bd 8b6f ecbb 4960 373d
000000e0: 8e40 70bd 1bd4 f7bc be50 643d 4e61 8abc
000000f0: 2360 2cbd 87c0 25bd c657 a7bb 6c25 1cbd
00000100: adf9 03bd 4f45 b33d e8a5 51bb e96e d33b
00000110: d41b 2ebd 8caf a0bd 3415 89bc b626 75bc
00000120: 6f73 79bc 35ad 8aba 4053 8e3c b563 83bd
00000130: 79b2 60bd 9cc2 1e3d 5b63 203d 09d4 b5bd
00000140: 68ae e1bc 7146 83bc 43a9 c4bc
-0.05719538 -0.011151481 -0.022053203 -0.053415366 -0.015824083 -0.0071414355 -0.04411156 -0.05364968
-0.0064150393 -0.0471789 -0.036155604 -0.07063114 0.054600615 0.081267186 -0.030821657 -0.07729571
-0.06678164 -0.05522177 -0.04326373 0.06817227 -0.07886586 -0.07734502 -0.048342478 -0.09929799
-0.0011603301 -0.037494067 0.022389568 0.05879555 0.0554954 0.001729884 -0.026448485 -0.034381248
-0.03127073 -0.03243076 -0.062135242 -0.013463231 -0.06028225 -0.06644683 -0.0571559 -0.0061325138
-0.04603568 -0.04350653 -0.08130201 0.012307858 -0.07348958 -0.06238691 -0.0933708 0.029344676
0.035288952 0.03736421 -0.013632374 -0.010034698 0.008207656 -0.03740073 -0.0072154454 0.04476956
-0.058655314 -0.030252507 0.055741064 -0.016892102 -0.04208387 -0.04046681 -0.005106899 -0.038121626
-0.03222053 0.08753454 -0.0031989757 0.0064524305 -0.042507008 -0.07845983 -0.016733743 -0.014962843
-0.015225275 -0.0010580184 0.017373681 -0.06415502 -0.054857705 0.038759813 0.039157253 -0.08878333
-0.027548984 -0.0160248 -0.024006492

arith.constant9 f4 [64]
00000000: af17 343e 0cfe 323e 0e25 2f3e 444e 0e3e
00000010: 6cfa c53d 308a 2a3e 6166 bf3d 0290 f53d
00000020: d9cb 9b3d b622 db3d 9381 ee3d f915 dc3d
00000030: c9a1 513e a42a 313e d1f3 013e f96e 203e
00000040: 88a8 183e b560 c83d 5de1 d53d 97ec c63d
00000050: 5c29 b83d d62c ee3d 39f7 e63d c2d8 3f3d
00000060: 5c04 163e 4cb7 503d 725e 1b3e c999 4e3e
00000070: cac4 023e ae64 de3d 9f45 2f3e 5b54 e33d
00000080: df05 123e 37c4 b53d 519d 0e3e 6bb5 273e
00000090: f7e0 2e3e f5ea 3a3e 621a 3a3e f86b 103e
000000a0: a292 e53d 7890 1c3e e2e7 e33d 4d92 1d3e
000000b0: 0015 f33d f570 453e 2cf9 803d 86cd 2d3e
000000c0: 8cd0 ec3d 7844 f13d fb48 d83d caed a53d
000000d0: e910 013e bf20 1c3e d1c0 0f3e d845 fc3d
000000e0: 6fd0 fd3d 27b4 bd3d a6b3 d13d 4409 123e
000000f0: 5e38 053e 8e45 b33d 9000 fe3d 9cb4 db3d
0.1758716 0.17479724 0.17103979 0.13897043 0.09666905 0.16654277 0.09345699 0.11990358
0.0760724 0.1069998 0.11645808 0.107463785 0.20471872 0.17301422 0.12690665 0.15667333
0.1490804 0.097840704 0.10443375 0.09713095 0.08992264 0.116296455 0.11277623 0.046837576
0.146501 0.050956056 0.15172747 0.20175852 0.12770382 0.10859047 0.17116402 0.11100074
0.14260052 0.08875316 0.13927199 0.16377799 0.17078005 0.18253691 0.18174127 0.14103687
0.112096086 0.15289485 0.111282125 0.1538784 0.1186924 0.19281371 0.06297526 0.16972932
0.11563215 0.117806375 0.10560795 0.08101995 0.12604107 0.15246867 0.14038397 0.12318009
0.12393271 0.09262877 0.10239343 0.14261347 0.13009784 0.08753501 0.12402451 0.10727808

arith.constant10 f4 [32]
00000000: e140 d93d be2c cf3d 9876 0c3e c7dc a63d
00000010: a2d7 d33d 3abf 833d 8fcb 0c3d 379f e73c
00000020: fa50 5d3d 17ae 133d e789 4d3d 1108 cf3d
00000030: ddc2 d23d df4d a63d f9ab 6e3c ee10 983d
00000040: 8dbc cf3d 3d42 723d bc92 b53d a8bf 983d
00000050: 16cc 823d 1e17 803d f3d3 bc3d 3ffb fe3d
00000060: e669 9c3d 9f87 b73d 8446 bb3d 6a98 ca3d
00000070: 5ecf c53c 394e a53d e9cf 403d 5d00 d23d
0.10608078 0.10115956 0.13717115 0.08147579 0.10343863 0.06432958 0.034373816 0.028274162
0.054032303 0.036054697 0.050180342 0.101089604 0.102910735 0.081203215 0.014567369 0.07425104
0.10143385 0.0591452 0.08865878 0.074584305 0.063865826 0.06254409 0.092201136 0.12450265
0.07637386 0.089614145 0.09144309 0.09892352 0.024146732 0.080715604 0.04707328 0.102539755
