iOS/SalePrediction/SalePrediction/model/modelo_recomendacao.tflite (tflite, 132652 bytes, 11 tensors)

arith.constant f4 [83, 32]
000000 7d 77 4c 3e 28 48 e7 3d 94 83 10 bd a7 e5 8a be
       0.19967456 0.112930596 -0.035281733 -0.27128336
000010 3e fc 0d 3c b7 43 87 bd 07 cf a3 3d 41 8d 95 bd
       0.008666096 -0.066047125 0.07998472 -0.07302333
000020 84 e3 67 bc 40 62 f6 bd 36 15 b1 3e fc 00 d9 be
       -0.014153365 -0.120304585 0.34586495 -0.42383564
000030 f9 ad 8b 3d 89 50 a3 be 62 69 ad bc 63 4b 45 3e
       0.06820292 -0.3189738 -0.021168415 0.19267039
000040 f4 d3 c8 3d bb d3 94 be 09 d3 c6 be d8 79 8b bd
       0.09806052 -0.29067788 -0.38832882 -0.06810349
000050 fd 74 e7 bd 7f 96 ae be d4 fe 12 3e e5 01 3e 3e
       -0.113016106 -0.34099194 0.14355022 0.1855541
000060 e1 44 dd 3d 97 dc 84 be 41 0d 70 be 09 8a 0c 3e
       0.10804153 -0.25949547 -0.23442556 0.13724531
000070 19 81 80 bd c8 0c a8 bc 54 d3 6e be 2e d5 20 3d
       -0.062746234 -0.020513907 -0.23322803 0.039265804
000080 9e e6 aa 3d ae f5 68 3e 22 4f 65 3e b5 88 10 bf
       0.08344768 0.2274997 0.22393468 -0.564586
000090 f1 b9 86 3d e6 15 c6 3e 09 36 75 3e 00 da cf be
       0.06578434 0.38688582 0.23946394 -0.40596008
0000a0 81 ac a1 be 1e f2 f5 3d 25 0a 67 3e 80 ed a5 be
       -0.31576923 0.12009071 0.22562464 -0.3240776
0000b0 30 bd ef bc 89 e7 da bc 84 68 61 bf 7b 4b e3 bd
       -0.029265016 -0.026721733 -0.88050103 -0.11098381
0000c0 f9 e1 54 bf df e1 fe bd d3 60 11 bf bc 91 b4 3e
       -0.83157307 -0.12445425 -0.5678837 0.35267437
0000d0 86 cf b2 be fe 78 60 bd fc ab 80 be bb cc 1c be
       -0.34923953 -0.054802887 -0.25131214 -0.15312473
0000e0 29 64 ba 3e 91 bf 75 3d c6 e7 04 bf 85 df 81 3e
       0.3640454 0.059997145 -0.5191616 0.25365844
0000f0 fb 90 d2 be 0f 3f 63 be b1 db 1d be a0 87 bb 3d
       -0.41126236 -0.22192024 -0.15415837 0.09156728
000100 62 10 8d 3e 54 00 84 3d 1e 7d 95 bd 64 2e e4 be
       0.27551562 0.06445375 -0.07299255 -0.44566643
000110 9e f0 12 3e 40 ad c0 be f7 da 87 be d2 0d 84 3b
       0.143496 -0.3763218 -0.26534244 0.004029968
000120 2d a0 9a 3e 49 09 0d bd 9e 78 be 3d 26 61 a1 be
       0.3020033 -0.034432683 0.0930035 -0.3151943
000130 dd 2f cb 3d a0 a0 b7 be 8a 1e 4e bd b3 6f 8c 3e
       0.099212386 -0.35864735 -0.050322093 0.2742897
000140 1c 51 47 3e 00 40 9a be 33 8d 88 be 2b 39 1c be
       0.19464535 -0.30126953 -0.26670226 -0.15256183
000150 0e 4e 84 be 85 0b ef be bf 87 76 bd a8 e0 13 3c
       -0.258408 -0.46688476 -0.06018805 0.00902573
000160 92 01 47 3d 5a be 98 be f0 5e fd bd ae d7 a5 3e
       0.048585482 -0.29832727 -0.123716235 0.32391113
000170 ad 68 ab bd 4f c3 9c be 26 6b 13 bf f6 0c b5 be
       -0.08369575 -0.3061776 -0.5758537 -0.3536145
000180 ef 62 b0 3e 81 af 4e 3e 7f f4 6d 3d b0 e6 3f 3e
       0.3445048 0.20184137 0.058094498 0.18740344
000190 c2 7a 1a be 52 e8 5a be 18 b7 b6 be e3 e0 e4 3b
       -0.15085891 -0.21377686 -0.35686564 0.0069848164
0001a0 3a d2 1a be 8c a8 82 be 40 d0 01 bf fb 7e 97 be
       -0.15119258 -0.25519216 -0.5070839 -0.29589066
0001b0 7f eb 6c 3e d5 65 95 be f0 80 e8 bd fe 17 2a 3b
       0.2313671 -0.29179254 -0.11352718 0.0025954242
0001c0 60 99 43 be 95 68 1c bd 4b 39 cf 3d fd 18 92 3e
       -0.19101477 -0.038185675 0.1011835 0.2853469
0001d0 a4 cd 84 be 69 2b aa bd 3e 08 30 3c 54 d3 bf be
       -0.2593814 -0.08309061 0.010744153 -0.37465918
0001e0 2e d6 bd 3e b9 37 81 be 84 b5 85 be a9 75 13 3c
       0.3707747 -0.25237826 -0.26115048 0.00900022
0001f0 7d 3e 64 3d 9b d7 8b 3d 2b 15 94 be 6b d7 a9 3e
       0.055723656 0.06828233 -0.289224 0.33172163
000200 2a 62 55 3e 86 8d cd 3d 90 f7 4d be b6 8c ae bd
       0.20838228 0.10036759 -0.20113969 -0.08522932
000210 1c 3b 19 bf dd 10 95 3e df 0c 85 bd bc 98 4d be
       -0.5985582 0.29114428 -0.064965956 -0.20077795
000220 7e 28 2a bb 00 d2 56 3d f5 09 9e 3e 84 76 8c be
       -0.0025964077 0.052446365 0.30866972 -0.2743417
000230 cc 0e 71 3e e1 26 8c be 17 4d 81 3d 06 15 44 be
       0.23540801 -0.27373412 0.06313532 -0.19148645
000240 ac 24 82 3e ae e5 22 bf 2c ec 90 bd 6a e9 e8 be
       0.25418603 -0.63631713 -0.07076296 -0.4549058
000250 d9 a0 4b be 32 83 fa bd 77 3f 1a 3e f6 5c c0 bd
       -0.19885577 -0.12232055 0.15063272 -0.09392731
000260 84 b2 e4 bd 25 07 c3 be 45 c3 7f be ba ce 9e 3d
       -0.11166862 -0.38091388 -0.24976833 0.07754274
000270 40 cd 29 bf a0 f4 8f be c3 53 bb 3e 82 3f ad be
       -0.6632881 -0.28116322 0.36587343 -0.33837515
000280 cc 3f d8 3e c9 3e f7 3e 2e a8 01 be 3f aa a5 bd
       0.42236173 0.4829009 -0.12661812 -0.080891125
000290 66 ac e9 bd 0e d4 d8 bd 51 d9 62 be 1d 58 d1 bd
       -0.114098355 -0.10587321 -0.22153212 -0.102218844
0002a0 d3 9d 31 bb 3f 8f 1e be 2f 35 65 be 82 8a af bd
       -0.0027102127 -0.15484332 -0.22383569 -0.0857134
0002b0 53 e1 38 be ef b0 05 bd 5a 3d c7 bd 36 39 4b 3e
       -0.18054704 -0.03263944 -0.09728499 0.19846043
0002c0 8f 7b 05 3d 2c 20 22 be d7 62 11 bf 3e 61 b4 be
       0.032588538 -0.15832585 -0.5679144 -0.3523044
0002d0 44 d9 2d ba d0 2f 6d bf d0 3a 20 be 47 76 83 3d
       -0.00066318014 -0.9265108 -0.15647435 0.06419044
0002e0 d7 51 74 be d2 9e 3e bd 30 5e 0f bd f0 50 3c 3e
       -0.23859344 -0.04653818 -0.035001934 0.1839025
0002f0 a6 06 ff 3d 1d 66 42 bf f8 07 43 3e 60 c4 82 be
       0.1245244 -0.7593706 0.19046009 -0.25540447
000300 69 69 83 3e 26 83 b0 3e 75 50 32 be c5 43 f8 be
       0.2566636 0.34475058 -0.17413504 -0.48489204
000310 69 3d e6 bd f7 b6 01 bf fa 31 25 be f5 b5 4c 3e
       -0.11242182 -0.5066981 -0.16132346 0.19991286
000320 e9 5b 3c 3e 37 7b 33 bd 32 10 c7 bb 7d 34 a0 be
       0.18394436 -0.04381868 -0.0060749287 -0.31290045
000330 87 90 81 bd 9d 1c 1b 3e 2d 48 7f be 1f a8 69 3e
       -0.063263945 0.15147634 -0.24929877 0.2281804
000340 be ed 9c 3e 14 93 10 bf da 6f f5 be 16 6a 9c be
       0.30650133 -0.56474423 -0.47936898 -0.30549687
000350 c9 a4 55 be 7e 99 ad be 50 89 d3 bd 12 cb 0d be
       -0.20863642 -0.33906168 -0.10328925 -0.13846996
000360 b8 fb d4 bd 94 42 85 be 2c da b1 be da 45 1f 3c
       -0.10399574 -0.26027358 -0.34736764 0.009721244
000370 83 d3 77 3d 1e e0 c4 be dd ce f7 bd cf 8e 83 be
       0.060504448 -0.38452238 -0.12100003 -0.25694892
000380 c5 17 21 3e 4a 1d d3 3d 8a 26 63 3d 4a ab 2a be
       0.15731724 0.10308321 0.055456676 -0.16666904
000390 52 ea 3f 3e 0d 5e 48 be ea 68 99 bd 21 0e 58 3e
       0.1874173 -0.19567128 -0.07490714 0.2109914
0003a0 96 3e f3 be af b9 82 bd 79 ef fd bd 91 87 eb 3a
       -0.47508687 -0.063830726 -0.123991914 0.0017969479
0003b0 9f e6 15 be 92 b3 a9 be 87 c9 4b 3e 5f a7 3b be
       -0.14638756 -0.33144814 0.19901095 -0.18325566
0003c0 6a 70 b2 be 2b 41 00 bd f4 05 ca bd 79 aa b7 be
       -0.3485139 -0.03131215 -0.09864417 -0.35872248
0003d0 1b 5d f3 be 96 cd 24 be c7 19 47 3e 12 99 8b bd
       -0.4753197 -0.1609405 0.19443427 -0.06816305
0003e0 45 df 8d 3e 1d b6 eb be aa 89 22 be d4 8c 08 bd
       0.27709404 -0.4603738 -0.15872827 -0.03333743
0003f0 c0 55 a4 be e0 5d 9d 3e 76 cc ec 3d b3 ae 20 3c
       -0.32096672 0.30735683 0.11562435 0.009807277

arith.constant1 f4 [32, 64]
000000 c0 64 5d be b3 8d fc 3e e2 7f 90 be 19 c0 b4 3e
       -0.21620464 0.49326858 -0.28222567 0.3530281
000010 c3 b4 8b 3d b7 90 da bd ee 87 d3 bc 97 31 64 3e
       0.06821587 -0.106721334 -0.025821652 0.22284542
000020 d7 a7 08 3e bf 6f 1f be 59 5d 74 3e e1 a0 86 be
       0.13345276 -0.15569972 0.23863734 -0.26294616
000030 4f 4f 4a be 05 24 db bd b4 3f 66 bd 94 b2 3e be
       -0.19756816 -0.107002296 -0.056213096 -0.1862281
000040 41 a4 17 be da 8c 0d 3f e6 af d1 3e dd a2 a1 bc
       -0.14808752 0.5529305 0.40954512 -0.01973098
000050 aa a3 19 3e 18 b7 c0 3d 3e 6c fd 3e dc 9f 70 3e
       0.15003839 0.09409922 0.49496645 0.23498482
000060 9a 38 d0 3d 83 51 ca bc 4c fe 41 be 1b 87 4b 3e
       0.10167046 -0.024697071 -0.18944663 0.19875757
000070 09 de 8e bd 0b 50 15 be ea 86 a9 3e fc 5f af 3e
       -0.069759436 -0.14581315 0.33110744 0.34252918
000080 20 ba ea 3e 04 2a 54 be b5 52 09 be 83 ca 4a b9
       0.45845127 -0.20719153 -0.13410456 -0.00019339663
000090 01 3e d1 bd 92 31 68 be 74 91 16 3f 42 00 da 3e
       -0.102169044 -0.2267516 0.58815694 0.42578322
0000a0 94 99 d0 3e e7 ff 5e 3e e9 85 13 3e 02 48 af 3d
       0.4074217 0.21777306 0.14406551 0.08558656
0000b0 53 08 69 3d 82 df 86 3c 36 d5 ed 3e c4 5b 95 3d
       0.056892704 0.016463999 0.4645173 0.072928935
0000c0 3c e2 37 be 67 53 82 3e e3 90 32 be 89 49 ba 3e
       -0.17957395 0.25454256 -0.17438082 0.36384228
0000d0 ea 5d 41 3d 95 e2 fe bb 74 1e 33 3c 07 58 e7 3d
       0.047208704 -0.0077784755 0.010932554 0.11296087
0000e0 45 ae 07 3d 89 3e 84 3c 7b 81 96 3e 24 61 4b bd
       0.03312518 0.0161431 0.2939566 -0.049653187
0000f0 41 e5 34 3e 3a 47 68 3e 34 92 a5 3e 9b 77 76 3e
       0.17665578 0.22683421 0.32338107 0.24069063
000100 66 7e d1 bd b1 ad 1f be b7 84 b9 3d f1 c1 cd 3d
       -0.10229187 -0.15593602 0.090585165 0.10046757
000110 91 c0 92 be 6d 21 cb 3d 0e f4 e5 bd 58 e9 91 3e
       -0.28662542 0.09918485 -0.1122819 0.2849834
000120 b8 50 51 3e be fb 36 3d ba 19 06 3e b3 4c 95 3d
       0.20440948 0.044673674 0.13095751 0.0729002
000130 7a cd a4 3e c7 f2 85 3e cf e2 44 bd 73 3a 1d 3e
       0.32188016 0.26161787 -0.048067864 0.15354328
000140 77 91 b3 3b 90 d1 3f 3e ce fc 93 3e 78 2b 4d 3e
       0.0054799872 0.18732285 0.28903812 0.20036113
000150 d1 04 5b bd 8d ae fc bc 82 ee c5 3e 3a 38 b6 3d
       -0.05347139 -0.030844951 0.3865853 0.08897443
000160 bd 3d 8e bd 48 8c 90 3d ed 1e d6 bd 86 9d d6 3c
       -0.069453694 0.070580065 -0.104551174 0.02619816
000170 5d e4 2a 3d 28 b9 29 3e 37 f9 98 bd 90 19 98 bd
       0.04172169 0.16574538 -0.07469409 -0.07426751
000180 ab 70 34 be ad 14 13 be e9 e8 8e 3e 3f d9 bb 3e
       -0.17621104 -0.14363356 0.2791207 0.36689183
000190 f8 4d 98 be cb 7d 59 be 2f 7b 26 3f 2c 1d 83 be
       -0.29746985 -0.21239392 0.65031713 -0.25608194
0001a0 b8 37 a4 3d a3 8b 00 be b6 04 c0 be 0d 4a ae 3e
       0.0801844 -0.12553267 -0.37503594 0.3404087
0001b0 a3 46 a3 3d a0 81 71 3e 06 20 04 3e 75 32 85 be
       0.07972457 0.23584604 0.12902841 -0.26015058
0001c0 57 a0 c6 3e 7b 89 9f 3d b6 21 6e bd d4 c0 82 3e
       0.38794205 0.07789894 -0.058137618 0.2553774
0001d0 bf bf c5 3e be 9a 3e bd 06 1a 94 be 6f 84 7d 3e
       0.38622853 -0.046534292 -0.28926104 0.2475755
0001e0 97 1c 91 3d 20 de 5e 3e 0c 2b 48 3d 6d b9 24 3d
       0.07085531 0.21764421 0.048869178 0.0402159
0001f0 2e 83 29 3e af 33 30 3e 74 ba 13 bc c7 c3 79 3d
       0.16553947 0.17207216 -0.009016622 0.060977723
000200 d8 6d 02 3e ec 28 a0 bd 94 93 ab 3e 44 98 7b bc
       0.12737215 -0.07820305 0.3351103 -0.015356127
000210 7f 61 86 3e 04 1e 9d 3d 41 33 6a 3d c1 eb d0 bd
       0.2624626 0.07671741 0.057177786 -0.102012165
000220 bf a6 61 3e 0e df 0d bd b0 a5 8d 3c 22 ae ac 3c
       0.22036265 -0.03463655 0.01729092 0.021079127
000230 41 3a a7 be d7 c3 19 bd 48 25 2a 3e 7d be 69 3e
       -0.32661632 -0.037540283 0.16615784 0.22826572
000240 bf cd d5 bd 90 04 75 be 08 da 3e 3e 1a 0b 8b 3d
       -0.104396336 -0.23927522 0.1863786 0.06789227
000250 13 46 4e 3e d7 1c 11 3e fd c8 3c be c7 83 78 3e
       0.20143919 0.14171158 -0.18436046 0.24269019
000260 0f 2a b4 be 12 86 89 3c 86 fa ad be 35 fc bc be
       -0.35188338 0.016787563 -0.33980197 -0.3691117
000270 0f a1 72 be 24 89 4a 3e ca ac a9 bc 19 6d 90 bd
       -0.23694251 0.19778877 -0.020712275 -0.07052059
000280 d8 9f b3 bc dc 97 88 3e fa 38 b6 3e e7 95 82 be
       -0.021926805 0.2667836 0.35590345 -0.2550499
000290 0f 0a 31 be 0a f5 b7 bd 6d 77 f7 bd 54 33 d0 3e
       -0.17288993 -0.08982284 -0.120833255 0.4066416
0002a0 38 f7 fc 3c a7 c4 a2 bd 45 f4 98 3e a7 4d 80 3d
       0.030879602 -0.07947665 0.29873863 0.06264811
0002b0 c8 0b 13 3e 03 43 b0 3c 12 32 20 3c 38 d2 a0 3e
       0.14359963 0.021516329 0.009777563 0.31410384
0002c0 26 74 e9 bd 0a 02 b0 3e b3 61 03 be f3 46 ad 3e
       -0.11399107 0.34376556 -0.12830238 0.33843192
0002d0 a4 ad dd 3d de eb 1b be be 82 15 3d c7 32 e1 be
       0.10824135 -0.15226695 0.03650164 -0.43984053
0002e0 48 07 79 3e 58 05 57 be 6d ab dd bc 38 b0 fa bd
       0.24319184 -0.20998132 -0.027059281 -0.12240642
0002f0 ad 1f b9 bd 35 44 31 bd 3f 79 ca be 5c 10 6a 3d
       -0.09039245 -0.043277938 -0.39545628 0.057144508
000300 37 e2 57 be e5 ef 8b bd 78 e6 70 be 59 cd 10 bd
       -0.21082388 -0.068328656 -0.23525417 -0.035352085
000310 4e d7 8e 3e 6d 21 77 3d e4 89 49 be f2 04 96 be
       0.2789864 0.06033461 -0.19681507 -0.29300648
000320 7a d6 ea be 4a ad 65 3e ab 88 c6 3d bd 5c 8b 3e
       -0.45866758 0.22429386 0.09694036 0.2721919
000330 7d 1a 25 3e 4e 9d 31 3e 47 fb 60 bd 83 7b c4 3d
       0.16123386 0.17345163 -0.054927137 0.095938705
000340 e8 db 11 3e 77 fe 7e bb 74 e6 2c 3c cc 79 ce 3e
       0.14244044 -0.0038908997 0.010552991 0.403273
000350 df 7a be 3e f6 e4 2e 3e 66 d5 87 3e d6 eb 3a be
       0.37203118 0.17079529 0.26529998 -0.18254027
000360 09 78 e8 3e c1 ca 52 3e e5 50 35 bd a0 b8 f4 3d
       0.4540408 0.20585157 -0.0442666 0.11949277
000370 59 d3 4c 3e ba b1 c8 3d 0e 76 e1 bd 36 1e 8e 3e
       0.20002498 0.09799524 -0.11008845 0.27757424
000380 9b e8 26 be 8f b5 74 be 38 b8 10 be a3 b8 56 3d
       -0.1629967 -0.23897384 -0.14132774 0.052422177
000390 34 ad a7 be e1 2d 0c be 36 9e 50 be 5f 87 32 bd
       -0.3274933 -0.13689376 -0.20372853 -0.04358613
0003a0 ac c3 ee bc 42 cb 2d 3e 72 62 50 be 1e eb b6 3e
       -0.029146038 0.16972068 -0.20350054 0.35726255
0003b0 84 28 8b 3d 9b d9 84 3c 0e f7 a6 3b 57 af 62 3e
       0.06794837 0.016217044 0.005095369 0.221372
0003c0 ad b1 4e be f3 c9 19 be d5 8d 9e 3e 5d 9d 05 3c
       -0.20184965 -0.15018444 0.30967584 0.008155194
0003d0 4c 07 be 3e bd 62 a3 be 67 fe 6f bd de 4f a4 3c
       0.37114942 -0.3191127 -0.058592226 0.020057615
0003e0 d2 c7 0d 3e 2d 55 9b bc 23 ee 27 be 39 8c b1 bc
       0.13845757 -0.018961513 -0.16399436 -0.021673309
0003f0 db d9 75 be f5 de 86 bd 60 28 bd 3c 56 5b 8b 3e
       -0.24008887 -0.065854944 0.023090541 0.2721812

arith.constant2 f4 [64, 47]
000000 f0 ab 90 3e 13 59 81 be 45 e9 7b 3e 56 98 14 be
       0.28256178 -0.2526327 0.24600704 -0.14511237
000010 35 88 b0 3e 04 f8 cc 3d 82 e6 d0 3d 77 a3 59 3e
       0.34478918 0.10008243 0.10200216 0.21253763
000020 5f 79 1a be 0f 68 86 bd 06 d7 d5 3d 4f ed 3b 3e
       -0.15085362 -0.06562816 0.10441403 0.18352245
000030 31 fe 33 be 98 e0 9e 3e 09 97 aa bc 4f 04 a0 be
       -0.17577435 0.31030726 -0.020823972 -0.31253287
000040 9e 22 5e be d8 fd 5e be 93 8b 1f 3d e2 b7 a2 3e
       -0.21692893 -0.21776521 0.038951468 0.31780916
000050 4b f1 bc 3e cd dd cb be 59 55 94 be 6c 09 77 be
       0.36902842 -0.39817658 -0.28971365 -0.24124688
000060 9d 6f 2c 3e 43 35 b1 3d aa e9 d5 bd 58 c3 9b be
       0.16839452 0.08652737 -0.104449585 -0.30422473
000070 07 63 6f bd 9f 83 b1 be 23 a9 c4 be 61 1d f8 be
       -0.05844405 -0.3467073 -0.3841029 -0.48459914
000080 1e 73 b8 3e 9f 6c 93 be 01 e8 21 3e 9b e9 d9 bd
       0.36025327 -0.2879381 0.15811159 -0.1064026
000090 7e 8d 85 3e 39 bb a4 3e b3 b9 b7 3e 04 bb d1 3d
       0.26084512 0.3217409 0.35883865 0.102407485
0000a0 3e 67 2c 3e ef 6c 83 3e 2c 96 47 3e b0 7a 31 bc
       0.16836259 0.25669047 0.1949088 -0.010832474
0000b0 37 f9 3e be 2b d6 d7 3d c8 d6 07 be d4 e4 3e 3d
       -0.18649755 0.10538896 -0.13265526 0.046604946
0000c0 ed c2 29 3e dd d1 07 3e e5 84 e1 3d 09 1b 6b be
       0.16578265 0.1326365 0.11011676 -0.22959532
0000d0 eb 8c f7 be 87 fc d1 be c2 e8 cf 3e 87 9e c7 3e
       -0.483497 -0.41012976 0.40607268 0.38988134
0000e0 d3 a3 97 3e c2 ec 6c be 88 a2 f2 bd 18 f3 1c bd
       0.29617175 -0.23137191 -0.118474066 -0.03831777
0000f0 9f d2 1b be 8b b3 cc 3e cb c1 c9 be 29 fa 4b be
       -0.15217064 0.3998073 -0.39405665 -0.19919647
000100 d4 94 8d bd af db 1b bd 3a 06 6d be be 22 20 3d
       -0.06913152 -0.038051303 -0.23146906 0.039095633
000110 c3 fd 2b 3e b7 16 a1 3e e2 35 ba 3e f4 06 19 be
       0.16796021 0.31462643 0.36369234 -0.14944059
000120 e7 d9 86 be 85 f0 ed 3d 0a 89 84 bd 2b 6f d8 3d
       -0.2633812 0.11618141 -0.064714506 0.105680786
000130 e7 de 5e 3e e7 ae 80 bc e2 71 89 3e 4d 40 84 3e
       0.21764718 -0.0157084 0.26844698 0.25830308
000140 80 6d 92 3d eb 5f a0 bc 1a d9 a4 bd d8 b8 2b 3e
       0.07149792 -0.019576987 -0.08049221 0.16769731
000150 1e 4c 84 3d 16 e0 87 3d 26 ae 55 3e 79 bf 6e be
       0.06459831 0.06634538 0.20867214 -0.23315229
000160 40 cf 02 be 46 9f 77 3e 24 56 ed 3c bf 96 2d be
       -0.12774372 0.24181852 0.02897174 -0.16952036
000170 fa 86 d0 3c cd 96 a0 3c f3 f2 ab 3d a5 00 4a 3d
       0.025454987 0.019603157 0.08395948 0.04931702
000180 b1 42 f2 bc 0b 8d cf be 02 2a 66 3e 48 a5 6a 3d
       -0.029572817 -0.40537295 0.22476962 0.05728653
000190 a0 a5 0f 3e 4b 7c 7a 3e d7 95 27 be a8 e3 71 be
       0.14028025 0.24461477 -0.16365753 -0.23622
0001a0 1f 04 2c be 97 3e c2 3e 31 52 84 3d 2c 9d d4 3e
       -0.16798447 0.37938377 0.06460989 0.41526163
0001b0 08 cc df 3e cc d2 b8 be c2 27 bd 3c 52 6e eb 3d
       0.4371035 -0.36098325 0.023090247 0.11495651
0001c0 1f 0a 93 3e 04 53 33 3e 82 ae bb 3e 5c e8 ac 3c
       0.2871866 0.17512137 0.36656576 0.021106891
0001d0 3d 34 7b be c8 17 92 3e b6 5d 38 be 4c e2 a3 3c
       -0.24531646 0.2853377 -0.18004498 0.020005368
0001e0 fa 8f 00 3d a7 ce 6d 3e ee b9 ba be 0e 1e bc bc
       0.031387307 0.23223363 -0.36469978 -0.02296355
0001f0 07 c3 b1 be 7c 21 2b 3e 67 6a b0 bd f7 a9 82 be
       -0.34719107 0.16711992 -0.08614045 -0.25520298
000200 8a 88 84 be 96 fd 5e be 73 b2 46 3c 85 10 92 3e
       -0.2588542 -0.21776423 0.012127507 0.28528228
000210 fc 85 8a bd 35 f5 f8 3e 21 d3 97 bd b2 c5 98 3e
       -0.06763837 0.48624578 -0.074133165 0.2983833
000220 65 42 c7 3e 56 33 e4 be ed cb 8e be 56 fa 39 be
       0.38917843 -0.44570416 -0.27889958 -0.18161902
000230 b0 56 b3 b7 3e 16 76 be cf 5a 93 3e 3b f9 d8 3d
       -2.137883e-05 -0.24031922 0.2878022 0.10594412
000240 c5 0f b4 3d 26 6a 9e be 63 98 64 be 98 4a 67 3e
       0.0879207 -0.3094036 -0.22323756 0.22587049
000250 f0 c6 1c bd 10 9a 31 3e 77 a0 ab 3e 5b 5c 06 3d
       -0.03827566 0.17343926 0.33520862 0.03280292
000260 51 22 0d be 41 43 0b bf 48 59 85 be 05 ab e7 3d
       -0.13782622 -0.54399496 -0.2604468 0.11311916
000270 e2 f4 6e bd 91 bc 2c be 71 22 d9 bd f8 df d7 3c
       -0.058339007 -0.16868807 -0.10602272 0.026351914
000280 bf 13 36 3e fd 6c 75 3e 0d 23 d2 3e 13 8f b2 be
       0.1778097 0.23967357 0.41042367 -0.34874782
000290 bb a7 98 3c b0 e1 d3 3e ad 3d d6 be 04 49 79 3e
       0.018634668 0.41383123 -0.4184393 0.2434426
0002a0 30 4d a0 ba 3e a3 92 bc c5 6c 91 be a6 f7 02 be
       -0.0012230035 -0.017900106 -0.28403297 -0.12789783
0002b0 2c 50 13 3f 1a 37 98 bd ba 1e 34 be e4 f1 16 bd
       0.5754421 -0.07432385 -0.17589846 -0.03685178
0002c0 7b 11 bd 3d 32 af 61 3e b4 cb a0 3d 34 25 3e 3e
       0.0923185 0.22039488 0.07851353 0.1856888
0002d0 8f c2 20 3e 9f 33 e6 be f2 c3 52 be ac bc 99 bd
       0.15699218 -0.4496126 -0.2058256 -0.075066894
0002e0 58 00 bd be 56 2d 7c be e1 bf 27 be 35 89 de ba
       -0.36914325 -0.2462667 -0.1638179 -0.0016978147
0002f0 fb 9b fe 3e ba d1 db be a6 0a a9 3e 44 8d 58 be
       0.4972838 -0.42933446 0.33015937 -0.21147639
000300 31 3c 12 be f0 9f b0 be 5a 6e 26 be 6d 94 df 3e
       -0.14280774 -0.34497023 -0.16253033 0.43667927
000310 6e df d5 3d e8 1a 1d 3e 64 e5 92 bb f9 34 ce 3d
       0.104430065 0.15342295 -0.004482912 0.100686975
000320 1c d4 6a 3e e1 ad ca 3e a3 cd bc 3d f9 ec 32 be
       0.22932476 0.39585784 0.092189096 -0.1747321
000330 27 6d c7 be 5d f5 a0 bd a6 00 30 be c0 e7 e2 bd
       -0.38950464 -0.07859299 -0.17187747 -0.11079359
000340 51 1f ae 3e a2 84 df 3e 71 f9 13 be 64 9d 09 3f
       0.34008268 0.43655878 -0.14450623 0.53755784
000350 2f 14 80 be df 1f ac 3e a0 92 ca be fe c4 0a be
       -0.250154 0.33618066 -0.3956499 -0.13551709
000360 82 f2 56 bb 2b 9b b0 be 64 e1 ed bc 51 c1 89 bc
       -0.0032798355 -0.34493384 -0.029038139 -0.016815813
000370 94 0f 76 3e bf 77 5b be 34 83 82 be 8e ef 3a be
       0.2402938 -0.21432398 -0.25490725 -0.18255445
000380 5c 72 d1 3e 44 b8 28 3e 90 ae 5d be ac 41 55 3e
       0.40907562 0.16476542 -0.21648622 0.20825833
000390 48 48 c7 bd b5 af 0e be df c6 0c 3c 31 23 cc bd
       -0.097305834 -0.13934214 0.008592336 -0.0996765
0003a0 2d d5 54 be 43 95 7b be ed 61 44 be 26 cb 4f be
       -0.20784445 -0.24568658 -0.1917798 -0.20292339
0003b0 30 53 86 3d 7b f1 84 3e c8 ec 58 be 8d 63 c0 bd
       0.065588355 0.25965485 -0.21184075 -0.09393988
0003c0 73 74 8d 3e b5 93 1f be da f3 b6 3e 65 13 b8 bd
       0.27627906 -0.1558369 0.3573292 -0.08988074
0003d0 12 de 12 3e be 5e 80 be 8b dd 9d 3e 60 b7 18 3e
       0.14342526 -0.25072283 0.30833086 0.14913702
0003e0 19 9e 95 be 96 06 91 bd 8f 14 02 3e e4 62 1f be
       -0.2922218 -0.07081334 0.12703155 -0.15565068
0003f0 22 d8 ad 3e 69 d0 99 bd 50 23 8a 3d 28 9b 96 be
       0.3395396 -0.07510454 0.067450166 -0.2941525

arith.constant3 f4 [689, 32]
000000 5d 5e 11 3e de 34 13 be 0c 7b b8 bd 7a c3 96 be
       0.14196153 -0.14375636 -0.09007844 -0.29446012
000010 4d 9b 9f be ce 6e 0e 3e 62 35 0e 3d 49 72 b1 3c
       -0.31173173 0.13909456 0.03471888 0.02166094
000020 8d e3 17 3e 2f d3 ee 3d 9f 70 c7 be 87 ee 45 3d
       0.14832897 0.11661374 -0.3895311 0.04832318
000030 10 b8 f2 3d aa 8e 5f 3e 4c 64 d4 3e ef f2 10 3e
       0.118515134 0.21831766 0.4148277 0.14155172
000040 4f e5 f6 3c ac 1b c0 3d 20 a6 5e be 06 5f 78 3e
       0.03013864 0.09380278 -0.21743059 0.24254999
000050 fd 12 81 bb a2 c4 8d 3d bb aa 92 3e 2f d3 f9 3e
       -0.003939031 0.0692227 0.28645882 0.48793933
000060 e8 4d 82 bd 34 ca 69 be 1d 6d 07 be 8b 6e 9d be
       -0.06362516 -0.2283104 -0.13225217 -0.307484
000070 7c 63 fe 3d 78 7a 8b 3e 64 08 64 be cc 51 4e 3e
       0.12421319 0.27241874 -0.22268826 0.2014839
000080 c6 28 f3 3d 2c 26 27 3e 64 09 1c be 58 f3 2c 3e
       0.11873011 0.16323155 -0.15237957 0.16889703
000090 d1 c1 5a 3e 18 3a 69 bd 2f 85 66 3e 15 8f 88 bc
       0.21362998 -0.05694017 0.22511743 -0.01666979
0000a0 66 85 f4 3c b6 d0 61 3c c3 dd 2b 3e cc 65 15 be
       0.029848766 0.013782671 0.16783814 -0.14589614
0000b0 e9 17 93 be f2 7b 0d be e7 32 6a 3e 05 ff ad be
       -0.2872918 -0.13816813 0.2287098 -0.33983627
0000c0 29 68 4c 3e 66 a8 92 3c 4e d3 13 3e b9 c5 9c bd
       0.19961609 0.017902564 0.14436075 -0.076549
0000d0 64 41 9f bd f7 02 9a be 9e d9 c8 3e 31 63 39 3e
       -0.07776144 -0.30080387 0.3922853 0.18104245
0000e0 f3 d0 18 bb 00 e0 97 bd fc 95 43 3e 13 b4 27 3d
       -0.0023317903 -0.074157715 0.19100183 0.040943217
0000f0 1d 5d 4a 3e a1 cf 5c 3e 82 b5 bb 3d c9 08 25 bd
       0.19762082 0.21563579 0.09165479 -0.04029158
000100 a6 d3 7e be 61 ae c3 bd 48 ff 3a 3d 34 25 a0 be
       -0.24885425 -0.095547445 0.04565361 -0.31278384
000110 c0 16 b1 be 50 9e 1d 3e 46 37 18 be 43 51 fc 3c
       -0.3458767 0.15392423 -0.14864835 0.030800467
000120 6b 8f f7 bd 04 8c 1d 3d ae 9d 07 3e cf 13 e9 3d
       -0.12087902 0.038463607 0.13243744 0.11380731
000130 53 90 d3 3c d9 b7 17 3e 3f 29 13 be 98 8b 88 3e
       0.025825655 0.14816226 -0.14371203 0.26669002
000140 fe 6c aa bd 1d 65 7d 3d 0e ad 30 be 72 37 7c 3e
       -0.0832157 0.061864007 -0.17253515 0.24630526
000150 ff ac a8 3e 86 79 45 3d 01 18 79 be d8 89 b4 3d
       0.32944486 0.048211597 -0.24325563 0.08815354
000160 a4 79 95 3e 04 3e 0e 3e d5 10 15 be 13 bc d8 bc
       0.29194367 0.13890845 -0.14557202 -0.026456868
000170 02 00 9b be 3b 0d 9e be d2 03 be bd c9 15 a0 3e
       -0.30273443 -0.3086947 -0.092780724 0.3126662
000180 8f a6 35 3e ca 6c 99 bd c8 05 28 3e 32 83 4e 3e
       0.17739318 -0.07491453 0.16408455 0.20167235
000190 bb b8 30 3e 02 da 92 3d 55 a3 42 3e 9c da 47 be
       0.17257969 0.07170488 0.19007619 -0.19516987
0001a0 6d 24 46 3e 4c cb 12 3e 07 d1 70 be fe a1 25 be
       0.19349833 0.14335364 -0.23517238 -0.16175076
0001b0 f2 76 89 3e 83 4e 08 3e 8f e5 b2 bc 01 00 0a 3e
       0.2684856 0.133112 -0.021837978 0.13476564
0001c0 95 db df 3d a3 72 bc 3d ab 05 37 be 4d 82 7b be
       0.10930554 0.09201553 -0.17873256 -0.24561425
0001d0 76 24 6c be 8c 4d 4e be 3f 14 69 3e d1 41 79 be
       -0.23060784 -0.2014677 0.2276163 -0.24341513
0001e0 56 65 09 3e ff 92 60 3e c5 72 b0 3d 0f 5f 83 be
       0.13417563 0.21931075 0.086156406 -0.2565846
0001f0 2f fe 80 be cf b3 bb bd 1d b7 12 be 40 2f 3f be
       -0.25193927 -0.09165155 -0.14327665 -0.18670368
000200 c2 8c 58 3e 60 2e 04 3e 61 a0 4b 3c 31 72 7e 3c
       0.21147445 0.12908316 0.012428374 0.015530155
000210 19 8b 44 be 4d 04 e9 3d 89 40 4f be 7d ff cc bd
       -0.19193687 0.113777734 -0.20239462 -0.10009668
000220 f2 77 c4 bd 52 d6 ed bd 4c a4 38 3e cf fa 69 3e
       -0.0959319 -0.11613144 0.18031424 0.22849582
000230 4b 1c 75 3e da 79 39 be ad 9a 95 be 76 a5 24 3f
       0.23936574 -0.18112889 -0.2921957 0.64314973
000240 fa cf d5 3c 2a b1 78 3d af ce e5 bd 02 e9 46 3e
       0.026100148 0.06071583 -0.112210624 0.19424823
000250 24 f6 0a be 91 f9 b9 3d 4a d1 18 3e 6d bf ac 3e
       -0.13570458 0.09080804 0.14923587 0.33739796
000260 2d 32 0b be 54 6f 91 3e e5 36 87 bc 96 93 1b 3d
       -0.1359336 0.2840525 -0.016505668 0.037982546
000270 88 1f 0d bd 21 14 62 be ef 3e 82 3d b0 11 a4 be
       -0.0344539 -0.22077991 0.0635966 -0.32044744
000280 35 c2 21 3e 8b 17 d7 bb b3 6a 04 3e 16 e6 3e bc
       0.1579674 -0.006564086 0.12931328 -0.011651536
000290 17 c6 6f bd 5f 2c 1f 3e 3a 5d 6c 3b 67 48 5f be
       -0.058538523 0.1554427 0.003606631 -0.21804963
0002a0 6b c1 73 bd 86 30 78 be b7 4c 46 3e 7b 9e 3e 3e
       -0.05951063 -0.2423726 0.19365202 0.18615143
0002b0 29 4c 93 3e e8 de 52 3d f1 78 02 be bd 84 9d 3e
       0.28769043 0.05148211 -0.12741448 0.30765334
0002c0 cb b7 12 3d 15 dd 49 3e 63 23 c1 3c c0 61 72 3e
       0.03581981 0.19713242 0.023576444 0.23670101
0002d0 21 bd 15 be 44 6b 2d bd 1b 5f b4 3d 49 59 b1 3e
       -0.14622928 -0.042338625 0.088072024 0.34638432
0002e0 a5 b9 36 be 75 02 94 3e 9a dd 52 bd da 46 c7 3c
       -0.17844255 0.28908125 -0.051480867 0.024325777
0002f0 e9 8e d8 bd a0 ec b0 bd 67 b8 88 3c 8c f0 7d be
       -0.10574133 -0.08638883 0.016689492 -0.24798793
000300 1e fc 1d be 3c 7e 96 3e 5a 41 e7 bb 07 4c 6d 3e
       -0.15428206 0.29393184 -0.007057351 0.23173533
000310 98 c6 42 be 85 d8 36 be 66 42 4d be 8e 21 32 be
       -0.1902107 -0.17856033 -0.2004486 -0.17395613
000320 7c df 03 be de 27 28 3e d2 4c 1f be 79 79 7b be
       -0.12878221 0.16421458 -0.15556648 -0.24558057
000330 19 24 4c bd b5 92 56 be e3 2c 36 3e 35 ec fe 3c
       -0.049839113 -0.20954402 0.1779056 0.031118492
000340 a5 35 3d be db c2 39 be 9a 10 5f be a7 bd 57 be
       -0.18477495 -0.18140738 -0.21783677 -0.2106844
000350 e2 16 d2 3d f0 18 04 3e 4b c1 c8 3d c6 b8 35 be
       0.10258271 0.12900138 0.09802493 -0.17746267
000360 4c f8 84 3e 31 13 63 be ef 19 9a 3e 9f 7a 0b 3e
       0.25970685 -0.2217529 0.3009791 0.13620995
000370 59 09 f6 bd b8 21 0f be c0 ed 31 3e 0b 17 a5 be
       -0.12013502 -0.13977706 0.1737585 -0.32244143
000380 46 09 40 be 94 43 93 be 5b be a5 3e f4 41 85 be
       -0.18753538 -0.28762496 0.32371792 -0.2602688
000390 b4 b8 a8 be 59 07 80 be 71 17 97 be c5 78 70 3d
       -0.32953417 -0.25005606 -0.29510072 0.058708925
0003a0 70 a2 bc 3c 67 8b 12 3c 51 c7 50 be 79 d5 bd bd
       0.023026675 0.008944369 -0.20388533 -0.09269232
0003b0 47 bf 1e bb cb 59 6c 3c b1 82 bb 3e e0 2c 05 be
       -0.0024222897 0.014425705 0.36623147 -0.130054
0003c0 ea f8 1f be 55 ba 5b be 9e e5 79 be 38 b0 b7 3c
       -0.15622297 -0.21457799 -0.24403998 0.022422895
0003d0 b8 33 90 3e f3 a9 77 3e bc 84 25 be 32 4a e5 bc
       0.28164458 0.24185924 -0.16163915 -0.02798948
0003e0 17 83 aa 3d da 4c b6 be 15 f7 06 bd 17 d0 5b be
       0.08325785 -0.35605508 -0.03295048 -0.21466099
0003f0 a8 5f 15 be 8b 69 78 be aa 01 c4 bd 69 52 94 3d
       -0.14587271 -0.24259011 -0.0957063 0.07242281

arith.constant4 f4 [5, 3]
000000 ff ee d9 be f2 a9 f0 be 76 e4 d2 be 54 0a b7 be
       -0.42565152 -0.47004658 -0.41189927 -0.35750067
000010 12 75 aa be 29 99 c8 be 23 bc 88 be 75 d6 d1 bd
       -0.33292443 -0.39179352 -0.26706037 -0.102459826
000020 f4 2c 53 be 58 47 1a be 1b c8 55 be 6f f2 f9 be
       -0.20622617 -0.15066278 -0.20877115 -0.48817775
000030 ba c3 ad 3c 18 e9 58 bc 5d 5d 32 3d
       0.021211494 -0.013239168 0.04354607

arith.constant5 f4 [221, 4]
000000 88 38 d8 3c 5b 1a e7 bd 9f 05 9f bc d0 4d 25 3e
       0.026394144 -0.11284324 -0.01941186 0.16142964
000010 55 cc ea 3d 13 08 22 3e 31 70 27 3e da a1 a6 3e
       0.114647545 0.15823393 0.16351391 0.32545358
000020 dc 9f e5 be 63 56 70 3e 6b c4 35 3e ee f5 dd bc
       -0.44848526 0.23470454 0.17750709 -0.027094807
000030 1d 09 9d 3e 2c 7d a6 bc 0a a5 cb 3d 5e d7 49 3e
       0.30671015 -0.020323358 0.09943588 0.19711062
000040 e0 58 ad be a6 65 a6 3e 7f e4 4a 3e 52 dc 2a 3e
       -0.3385687 0.32499427 0.19813727 0.16685608
000050 0c 1d e5 3d 30 e5 01 be d7 92 a6 bd bb 77 27 3e
       0.11187181 -0.12685084 -0.08133476 0.16354267
000060 81 ca 99 be 55 94 5b 3e 93 a0 56 3e 47 94 5c 3e
       -0.3003731 0.21443303 0.20959692 0.21540938
000070 37 cb 83 be a9 60 be bd 92 be 7b be 4b 34 85 bd
       -0.25740978 -0.0929578 -0.24584416 -0.06504115
000080 70 1f dd bc 42 76 62 be 69 b6 ee be 79 6f 95 be
       -0.02699253 -0.22115424 -0.46623543 -0.2918661
000090 c0 49 2a 3d b1 06 ee bc 3d 41 45 be a2 1d 5f bd
       0.04157424 -0.029055925 -0.19263168 -0.05447162
0000a0 03 4d a6 3a 49 99 ff bc 74 37 21 3e e6 c8 8d 3e
       0.0012687746 -0.031201022 0.1574381 0.27692336
0000b0 64 6b 87 3e b9 96 1b be 38 74 d0 3d 48 01 36 be
       0.2644912 -0.15194215 0.10178417 -0.17773926
0000c0 d8 c8 03 bf 5e 31 01 3e aa 8b 93 3e 5d e3 83 be
       -0.5147834 0.12616488 0.28817493 -0.25759402
0000d0 fc db 6e be c9 8b 59 be 08 25 3c bd e9 98 14 3e
       -0.23326105 -0.2124473 -0.045933753 0.14511456
0000e0 c4 73 29 be 33 92 ca 3d a8 5a 74 3e 2c cf 57 3e
       -0.16548067 0.098911665 0.23862708 0.21075124
0000f0 1b f6 9e 3c af 15 23 3e 67 e3 b7 3d 43 80 7a be
       0.019404462 0.1592624 0.089789204 -0.2446299
000100 f3 da 50 be 9c 77 91 be 8b a4 e6 bd 45 13 88 be
       -0.20396022 -0.28411567 -0.11261853 -0.265772
000110 06 47 25 be 23 0c a8 3e 3c 15 fd 3d b8 10 df 3d
       -0.16140375 0.3282176 0.12357566 0.10891861
000120 67 4b 9a be 80 cb 54 3e 0e d4 2b bd ab e9 b2 bd
       -0.30135652 0.20780754 -0.041950278 -0.08735975
000130 aa b8 32 be af b1 6e be 05 7c 4d bd 86 22 20 3e
       -0.17453256 -0.23309968 -0.050167102 0.1563817
000140 56 57 c8 3d 2a 92 48 be b6 fd 85 3e 24 e8 80 be
       0.09782283 -0.19587007 0.2617013 -0.2517711
000150 6f c5 e1 be 9f 34 96 3e 6b e4 7b bd ed 06 59 3e
       -0.44095942 0.29337022 -0.061497133 0.21194048
000160 9a 37 82 3e e8 36 3d be e7 a4 4e bd 93 2d 31 3c
       0.25433046 -0.18477976 -0.050450232 0.010814088
000170 e2 9a 0a bd 93 9c 12 3e 53 ff 63 3e 9c bd 1c bd
       -0.033839114 0.14317541 0.22265367 -0.038266763
000180 4e c7 90 be 5b aa 71 bc 09 ff 95 bd 64 e8 10 bd
       -0.28277057 -0.014750089 -0.07324035 -0.035377875
000190 d3 0e 95 be 10 38 0c 3e c5 2a 21 3e df c6 6e 3e
       -0.29112872 0.13693261 0.15738972 0.23318051
0001a0 b2 c1 c6 be ed fb 95 3d 64 86 6a 3d be 47 0a be
       -0.38819653 0.07323442 0.05725707 -0.1350393
0001b0 44 7d 5a be 80 dd a6 3e e6 e2 51 3e d2 69 7e 3d
       -0.21336848 0.32590866 0.20496711 0.062112637
0001c0 fa 4d 24 be a6 8e d5 3d fd 70 60 3e af 97 3a be
       -0.1604537 0.10427599 0.21918102 -0.18221925
0001d0 c4 c9 22 be 8c d4 1e 3e 26 95 78 3e fa 2d 40 be
       -0.1589728 0.15510768 0.24275646 -0.18767539
0001e0 bf 00 16 be d2 58 16 be f6 d9 95 bd b4 1a 37 be
       -0.14648722 -0.1468232 -0.073169634 -0.1788128
0001f0 45 a8 f4 be eb 51 63 bd 15 77 96 3e 2e ec 77 3e
       -0.4778463 -0.055498045 0.29387727 0.24211189
000200 d7 e6 03 be fc f4 43 3e b9 23 40 3e d3 80 99 bd
       -0.12881027 0.19136423 0.18763627 -0.074952744
000210 db 18 6f be 78 2b 26 3d 91 bc 8c 3e 18 c1 af be
       -0.23349325 0.0405688 0.27487615 -0.34327006
000220 91 f3 c6 be 44 3f 19 3d 1e 70 ce 3e 79 d2 07 3e
       -0.388577 0.03741385 0.40319914 0.13263883
000230 b9 bf a3 bd e5 42 05 3e ef 71 82 3e 3f 04 af 3e
       -0.079955526 0.130138 0.2547755 0.34182927
000240 3c cc 86 be 5d ab 29 3e 90 a2 47 3e f0 12 dd 3d
       -0.26327693 0.16569276 0.19495606 0.10794628
000250 3f b1 23 3d 9f 2c 39 bd 0b bc 17 3d 95 d4 a2 be
       0.039963957 -0.04520857 0.037044566 -0.31802812
000260 e1 07 14 be 29 94 42 3e 29 9e da 3e b4 53 ec be
       -0.1445613 0.19001831 0.42698792 -0.4615761
000270 bc 84 77 be 20 6f 11 3e a9 0f 37 3e 3c 19 38 3e
       -0.24171728 0.14202547 0.17877068 0.17978376
000280 e8 c3 d0 be 56 2d 9a 3e fb 63 21 3e c2 5a bd be
       -0.40774465 0.30112714 0.15760796 -0.36983305
000290 c6 b5 8b be 23 c5 09 3e cb 0c 3f 3e a0 51 33 3e
       -0.2728712 0.13454108 0.18657224 0.17511606
0002a0 99 f0 3e be 24 b4 12 3d 25 eb 05 be 53 18 68 3e
       -0.18646468 0.035816327 -0.13077982 0.22665529
0002b0 9b 7f 55 3e cb 7d 28 3a a5 6e a1 3d 9d a0 39 3e
       0.20849459 0.0006427436 0.07882432 0.18127675
0002c0 46 ec 89 3e 49 fd 8d be 23 bd 75 3e 79 d2 6f 3e
       0.26938075 -0.27732304 0.23997931 0.23420133
0002d0 65 aa 37 be 60 38 75 3e 30 33 88 3e ab 0e 20 be
       -0.17936094 0.23947287 0.26601553 -0.15630595
0002e0 37 5a ab be 2b df b2 bc 38 54 fc 3b 68 a1 55 3e
       -0.33467266 -0.02183493 0.0077004693 0.20862353
0002f0 e4 d2 c3 bd 58 68 ab be b4 a2 39 be 46 ef af 3e
       -0.095617086 -0.33478045 -0.18128473 0.3436224
000300 12 4d 29 3d 20 00 b3 be 71 9d 83 be 68 5c 71 be
       0.041333266 -0.34961033 -0.25706056 -0.23570406
000310 3d 20 2b be ea 52 ba 3c 28 17 ce bd 93 cb 0b 3e
       -0.16711517 0.022744615 -0.100630105 0.13651876
000320 5c d8 c3 3c f0 cc 3a bd 19 19 70 be 87 1e 0c be
       0.02390688 -0.0456056 -0.23447074 -0.1368352
000330 d3 05 39 be 48 f9 9a 3c 71 4b 04 3f 98 65 6a be
       -0.18068628 0.018917695 0.51677614 -0.22890317
000340 69 d9 76 3e 15 f4 a7 be 5e 39 2b 3e 6f 68 45 3e
       0.24106373 -0.32803407 0.16721103 0.1927812
000350 7d 70 1b be af 4f 02 3e c3 09 ed bc b5 c6 3e 3a
       -0.1517963 0.1272571 -0.028935319 0.00072775345
000360 db 4c bf be d5 de 7d 3d 83 61 c6 3e fc 3f dc 3e
       -0.37363324 0.061980087 0.3874627 0.43017566
000370 84 e3 84 3e 2b fc 73 3d dc 38 58 3e 61 e7 77 be
       0.2595483 0.059566658 0.2111544 -0.24209358
000380 2f 74 81 3e 36 04 2c be d8 ad bd 3c 4c e7 be bd
       0.25283954 -0.16798481 0.023154184 -0.0932146
000390 be 91 49 be d3 dd 8a 3d 78 30 67 3e 83 27 94 3e
       -0.19684502 0.06780591 0.22577083 0.28936395
0003a0 bd d5 80 be 55 45 40 3e c1 24 2e 3e 9d 2e 23 3e
       -0.2516307 0.18776448 0.17006208 0.1593575
0003b0 b1 f9 59 be 45 52 20 3e e6 08 f1 3d 19 1c 35 3e
       -0.21286656 0.15656383 0.11769275 0.176865
0003c0 3f 50 b6 be e4 cd 4d 3e 39 3f 14 3e f7 2d 8d 3e
       -0.35608098 0.20098072 0.14477243 0.2757413
0003d0 21 f0 25 be 55 15 10 3e c6 78 2a be 1f 88 1b 3e
       -0.16204883 0.14070638 -0.16647634 0.15188645
0003e0 42 02 61 be 52 38 4a be 9b ce a3 bd 52 61 09 3e
       -0.21973518 -0.19748047 -0.07998391 0.13416031
0003f0 72 45 8f bd a1 37 ca bd 42 bf b0 3e 35 de 60 be
       -0.069956675 -0.098738916 0.34520918 -0.21959765

arith.constant6 f4 [8, 4]
000000 86 93 a0 3e 7e 02 a9 3e 25 d8 cf 3d f8 4f 86 3e
       0.3136255 0.33009714 0.10148648 0.26232886
000010 58 f8 86 3e c9 6e ab 3e 3f d2 af 3d 0b a9 db 3e
       0.26361346 0.3348296 0.08585023 0.42902407
000020 45 fb a9 3e 8b c7 ac 3e 82 c5 d4 3d 72 08 70 3e
       0.33199516 0.3374599 0.10389234 0.23440722
000030 d9 65 9c 3e e6 9e 62 3e f5 bb 15 3d 07 02 96 3e
       0.30546454 0.22130927 0.036556203 0.29298422
000040 7a 83 4f 3e 8b 13 23 3e b6 82 8f be 3b 3e 23 3e
       0.20264998 0.15925424 -0.28029412 0.15941708
000050 b0 20 e1 3d 0d a7 f0 3d c2 ab c2 bd d0 33 ae 3d
       0.10992563 0.117506124 -0.095054165 0.08505976
000060 a6 4f 00 3e 91 79 9a 3e 9d df 00 3c 8f 93 20 3e
       0.12530383 0.30170873 0.007865814 0.15681289
000070 aa c3 25 bd 30 1e f2 bb a0 78 8d bc 39 8c 39 3d
       -0.040469803 -0.0073888525 -0.017269433 0.045299742

arith.constant7 f4 [25, 4]
000000 7d c2 8c 3c 56 da 18 be e2 c1 48 be ac 36 67 be
       0.017182583 -0.14927039 -0.1960521 -0.2257945
000010 30 01 12 3b f5 88 16 be 1b 12 e3 bd d5 ed 68 bd
       0.002227854 -0.14700682 -0.11087438 -0.05686744
000020 cf 85 1a 3e ef 0c 3e 3e bd 91 a1 3d 11 08 70 be
       0.15090106 0.18559621 0.078891255 -0.23440577
000030 11 9e 15 be ff ba 0c 3e de 37 d9 bc 75 72 65 3e
       -0.14611079 0.13743208 -0.026515897 0.22406943
000040 5b 81 61 3e 91 4b a3 3e 59 f9 05 3e 88 6d c7 3d
       0.22022001 0.3189359 0.130834 0.09737688
000050 1e b4 50 3d 78 49 09 3d 4f c2 9f bd 16 ad e2 bd
       0.050953023 0.03351733 -0.07800733 -0.1106817
000060 94 c7 e0 bd 90 d4 1c be 92 43 00 be 1a b2 e0 3c
       -0.109755665 -0.15315461 -0.12525776 0.027428675
000070 58 e1 82 3e 5b da a0 be 0c bd 09 be 69 e0 08 be
       0.2556255 -0.31416592 -0.13451022 -0.13366856
000080 a6 3c f9 3d 6a 5a 2b be 03 17 3a bd 2c f7 3f bc
       0.12169771 -0.16733709 -0.045432102 -0.011716645
000090 93 09 a1 3b 84 aa a0 bd df 82 1e be 3c b9 5b 3d
       0.0049144714 -0.07845023 -0.15479611 0.05364345
0000a0 be f9 c2 3d 0c a6 c9 bc ae 6c 54 be d4 75 c2 bd
       0.09520291 -0.02461531 -0.20744583 -0.0949513
0000b0 29 a1 32 3e b5 fa 07 be a8 9c 1e be 50 37 76 be
       0.1744429 -0.13279231 -0.15489447 -0.24044538
0000c0 25 f8 bd 3e 76 a3 1f be 95 61 6d bd 56 92 15 be
       0.37103382 -0.15589699 -0.05795439 -0.14606604
0000d0 25 4d a3 3d 00 11 0f be b3 77 38 be 80 3d 7b be
       0.079736985 -0.13971329 -0.18014412 -0.24535179
0000e0 b5 d1 5c bd 74 4f 94 bd 56 fe 08 be 61 37 99 be
       -0.05391093 -0.07241717 -0.13378271 -0.29925063
0000f0 a0 a8 96 3d 4e 8f 01 be 75 88 f4 bd 33 e3 78 be
       0.073563814 -0.12652323 -0.119400896 -0.2430542
000100 b3 d9 15 3e 3c 81 43 be 5b 7e 85 bd ca 6d be bd
       0.14633827 -0.19092268 -0.06518241 -0.09298284
000110 d3 38 b9 3e 1b 66 39 be f6 cf 05 be 5e 1b 7c bd
       0.36176166 -0.18105356 -0.13067612 -0.061549537
000120 0a 74 a6 3d 88 60 7e be 6f de 04 bd ce a6 c9 bd
       0.081276014 -0.24841511 -0.03243869 -0.098462686
000130 f8 47 0d 3e 5d 91 0d bd 51 b1 0c bd 07 1b 86 be
       0.13796985 -0.034562457 -0.03434879 -0.26192495
000140 5b db 2f 3e e6 3b 11 be 2c a6 80 bd ef a1 1a be
       0.17173521 -0.14183006 -0.06281695 -0.15100835
000150 b0 9a 8e 3d 99 a7 d9 bc 85 61 f1 bd bd 88 8c 3d
       0.06963098 -0.026569175 -0.117861785 0.06862018
000160 71 f6 8f 3d 59 0c 3a 3c de 74 a0 bc a3 69 6b be
       0.07029427 0.011355483 -0.019586977 -0.22989516
000170 c2 a4 48 3d 3e 22 5f be bf b7 97 be 30 2f 04 be
       0.04898525 -0.21790406 -0.29632375 -0.12908626
000180 0d 89 41 3d d6 87 2a bd f4 3e 3b 3c 0d a3 e6 bc
       0.047249842 -0.04163345 0.011428583 -0.02815392

arith.constant8 f4 [83]
000000 8a 3f 0d bd a3 c4 4d bc 7b 91 0a 3c 0a f5 6a bc
       -0.034484424 -0.012559089 0.008457537 -0.014340648
000010 11 b0 1a bd 6f 3e 1a 3c 40 be 4d 3b 23 71 dd bc
       -0.037765566 0.009414299 0.0031393915 -0.027031487
000020 cd f1 dd bc a8 d2 6c 3b a1 39 91 3c 04 68 19 bb
       -0.027092839 0.0036136303 0.017727675 -0.0023407945
000030 29 f9 43 3d ad 53 fb 3b d3 7a dd 3b 79 78 e1 bb
       0.04784504 0.007669887 0.0067590266 -0.0068808165
000040 e3 fd 50 3d e8 48 34 bb a3 61 3c 3d b2 b3 d4 3c
       0.051023375 -0.0027509276 0.04599155 0.025964592
000050 0b 67 1d bd 8d f2 3f bc b7 5b ed 3c 1f d9 97 3d
       -0.038428348 -0.011715543 0.028974397 0.074144594
000060 f3 c1 d9 bc c0 a4 d4 bc 00 93 0d 3c 50 68 4d 3d
       -0.02658174 -0.025957465 0.008641005 0.05014831
000070 f0 d2 c5 3c 50 83 86 3d f3 ee ab 3b 5d 01 ca 3d
       0.024148434 0.065680146 0.005246991 0.09863541
000080 f2 ba 74 bd d3 c8 43 3c 6b a7 88 bc 9e 90 0e bb
       -0.059748597 0.011949736 -0.016681394 -0.002175368
000090 0c db 57 3d b2 90 e6 bc 3b ad 8b bd 05 32 de 3d
       0.052699134 -0.028145168 -0.068201505 0.10849384
0000a0 88 92 64 3d 0a a0 e2 bc 5b 32 1e 3d 83 3f a1 bc
       0.055803806 -0.027664203 0.03862224 -0.019683605
0000b0 5d e3 de bd 26 ba 4f bc f3 69 3b bd 8c 6d 6a 3d
       -0.1088321 -0.012678659 -0.045755338 0.05723338
0000c0 f8 4c 03 3c 64 e5 50 3d e8 e0 81 3c d7 1e 7f bc
       0.008013956 0.051000014 0.015854314 -0.015571318
0000d0 87 26 00 3b 17 0b 9c 3c 71 1d 14 bd 05 0b 39 3d
       0.0019554214 0.019048257 -0.03616089 0.045176525
0000e0 4d d4 31 bd 0a 1a 3c bd be cf f1 3c c6 cf f9 3c
       -0.043415356 -0.04592327 0.029518005 0.030494582
0000f0 00 cc c9 bc a0 16 84 bd 40 10 4e bc f6 10 d7 bc
       -0.024633408 -0.06449628 -0.0125771165 -0.026253205
000100 60 b7 41 bd e1 8e 87 bc 6f 8c 12 bd 4d ab 80 bd
       -0.04729402 -0.016547622 -0.03577846 -0.06282673
000110 c0 0a 32 bd f1 c8 15 3c 2b 1a 2e bd 47 d3 d6 bc
       -0.043467283 0.009142146 -0.042505424 -0.026223792
000120 94 e6 c8 3b f5 6e 8a bd 52 2b 04 3d e3 fb 1a bd
       0.0061310027 -0.067594446 0.032267876 -0.037837874
000130 93 38 d5 bd bc 48 d8 bb ca 36 80 3c 4a 39 24 bd
       -0.10411181 -0.0066004675 0.015651125 -0.040093698
000140 dc b3 1f be 74 67 52 bd 4e b4 9b bc
       -0.15595955 -0.05136819 -0.019006874

arith.constant9 f4 [64]
000000 d3 58 f4 3d 59 ca 05 3e 46 1e 2d 3e 25 2e ea 3d
       0.119310044 0.13065471 0.1690608 0.114345826
000010 ca de 0d 3e 93 97 04 3e 62 2b fd 3d 0b 4a e4 3d
       0.13854519 0.12948446 0.1236179 0.11146935
000020 6e f2 23 3e 6a dd 0a 3e 32 bd 16 3e 15 d1 22 3e
       0.16010448 0.13561025 0.1472061 0.15900071
000030 c6 ff e6 3d 54 95 0e 3e c4 ed af 3d cc 48 fb 3d
       0.11279254 0.13924152 0.08590272 0.12269744
000040 86 d5 15 3e 9f 4f 50 3d 4f f9 f5 3d 9c 41 0b 3e
       0.14632234 0.050857183 0.120104425 0.13599247
000050 1b 04 f8 3d 93 7e 2e 3e 72 91 0e 3e 15 ec 26 3e
       0.12110158 0.17040472 0.1392267 0.16300996
000060 ab 8f 33 3e 2b 53 13 3e 89 b9 11 ba ac d2 24 3e
       0.17535274 0.14387195 -0.0005558958 0.1609599
000070 d7 26 04 3e 59 1a 1b 3e 99 94 64 3e a5 6d d0 3d
       0.12905441 0.1514677 0.2232231 0.10177163
000080 51 84 1a 3c 93 21 d3 3d 6c 3b 19 3e 82 17 f5 3d
       0.009430961 0.10309138 0.14964074 0.119673744
000090 b4 67 9a 3d 6f bb d2 3d b4 e2 38 3e 82 ba 00 3e
       0.07539311 0.10289656 0.1805523 0.12571147
0000a0 0a 42 9e 3d d9 29 06 3e 7d 9a ae 3d f9 17 3c 3e
       0.0772744 0.13101901 0.0852556 0.1836852
0000b0 00 50 16 3e 83 b8 d5 3d eb 14 42 3e 37 63 ce 3d
       0.14678955 0.104355834 0.18953292 0.100775175
0000c0 f7 eb 5a 3e ef e1 d1 3d ae ac fc 3d 1a 33 44 3e
       0.21379076 0.102481715 0.123376235 0.19160119
0000d0 05 43 3d 3e 63 54 c5 3d ef 57 74 3d 8d 87 28 3e
       0.18482597 0.09635236 0.059654173 0.16457959
0000e0 92 e3 07 3e a1 ee 3f 3d 25 59 11 3e ce 98 84 3d
       0.13270405 0.046858434 0.14194162 0.06474458
0000f0 c1 c1 35 3e f4 4d 0f 3e dd 6d b7 3d fa e0 e0 3d
       0.17749692 0.1399458 0.08956502 0.10980411

arith.constant10 f4 [32]
000000 0c b3 b2 3d a0 10 09 3e 91 09 8b 3d 0b f3 34 3d
       0.08725557 0.13385248 0.06788934 0.044177096
000010 53 40 32 3d db e6 d0 3d 5a f5 79 3d c9 90 eb 3d
       0.043518376 0.10200282 0.061025 0.11502225
000020 ff 6c 67 3d 22 1b 97 3d d9 f2 9c 3d 30 31 9b 3d
       0.05650043 0.07378222 0.07663507 0.07577741
000030 0e d3 fe 3c 76 14 f8 3d cd e5 43 3d 5e 06 52 3d
       0.031106498 0.121132776 0.047826577 0.051275603
000040 24 e2 df bc ea ab 9e 3d ad 2b d0 3d 9e 8d c8 3b
       -0.027329512 0.07747634 0.101645805 0.0061203977
000050 6a ae 41 3d 4d f8 40 3d c8 d2 99 3d c9 cf 12 3d
       0.047285475 0.047111798 0.075109065 0.03584269
000060 5e 40 cf 3d bc e4 90 3d af eb 67 3d 00 ca fe 3d
       0.10119699 0.070748776 0.05662125 0.12440872
000070 8f cb 20 3d ea ef ba 3d 22 c8 2b 3e 1f f9 82 3d
       0.03925663 0.09127791 0.16775563 0.06395172
